zigzag-imc/workload_preprocessing/infer_onnx/mlperf_tiny/mobilenet_v1/mobilenet_v1.onnx (onnx, 82322 bytes, 29 tensors)

model/activation_17/Relu;model/batch_normalization_17/FusedBatchNormV3;model/depthwise_conv2d_8/depthwise;model/depthwise_conv2d_8/BiasAdd;model/depthwise_conv2d_11/depthwise;model/depthwise_conv2d_8/BiasAdd/ReadVariableOp/resource f4 [128]
000000 7c e8 00 3d 08 74 dc be 9a 22 c8 be 3e 85 5a be
       0.031471714 -0.43057275 -0.390889 -0.2133989
000010 f4 50 f0 be 71 bb e2 be 92 7b ce be 26 51 07 bf
       -0.46936762 -0.4428363 -0.40328652 -0.528582
000020 07 94 a9 be bf f5 ae be 1b a5 13 bf 3b 20 cf be
       -0.33120748 -0.34171864 -0.57673806 -0.40454277
000030 6a b3 d6 be 00 72 1a bc 74 2d 70 bf 29 98 b0 3e
       -0.41933757 -0.009426594 -0.93819356 0.3449109
000040 ee fa 04 bf 36 9e c2 be 4d ff cf be be 9e b5 be
       -0.5194539 -0.3801133 -0.40624467 -0.35472673
000050 2e 8c c1 be e4 ff e5 be 39 1d a2 be 76 f2 9c be
       -0.3780226 -0.44921792 -0.3166292 -0.30653733
000060 f8 1a e7 be 87 e7 b9 be 8c ad a5 be 35 0e 5a be
       -0.45137763 -0.36309454 -0.32358968 -0.21294482
000070 6a b1 f2 be 29 60 c6 be f5 1a 03 bf b9 4b 8a bf
       -0.4740098 -0.3874524 -0.5121301 -1.0804359
000080 bc 50 d9 be c5 8d c1 be 4a 7f d5 bd e4 82 9c be
       -0.42444408 -0.37803474 -0.10424669 -0.30568612
000090 b8 89 d2 be b4 c6 ce be be 0a ac be db 57 ca be
       -0.41120696 -0.40385973 -0.33601946 -0.39520153
0000a0 d4 52 2b bf ba a4 74 be 62 45 e8 be bb 65 ce be
       -0.6692326 -0.23890963 -0.45365435 -0.4031199
0000b0 fc c2 bd be e8 7a c8 be cf bb cc be 00 de 0a be
       -0.37062824 -0.3915627 -0.39987037 -0.13561249
0000c0 6d 93 93 bf fc 84 1c bc 65 c4 7f 3f ea 14 b6 be
       -1.1529366 -0.00955319 0.9990905 -0.3556283
0000d0 18 8f b4 be a2 3b d7 be be 25 fc be 94 de e8 be
       -0.35265422 -0.42037684 -0.49247545 -0.45482314
0000e0 ec 19 4a be 20 05 cc be e1 04 ea be 56 11 e0 be
       -0.19736451 -0.3984766 -0.45706847 -0.43763226
0000f0 9c 97 e7 bd 16 29 ac be ae cd d3 be 5e 47 c4 be
       -0.11308214 -0.33625096 -0.4136786 -0.383357
000100 43 85 be be ed d2 b8 be 09 f0 07 bf 2b 6c 4d bf
       -0.37211046 -0.36098424 -0.5310064 -0.80243176
000110 1e 7f c5 be e7 f0 a7 be 02 55 b0 be 54 06 87 bf
       -0.38573545 -0.3280098 -0.34439856 -1.0548806
000120 b6 a8 ab be f0 6e 9f be 10 ac 98 be 24 a4 c4 be
       -0.33527154 -0.31139326 -0.29818773 -0.3840648
000130 49 e9 a4 be 2b a0 b6 be f9 3b 7d 3f 82 cd f8 be
       -0.32209232 -0.35669073 0.98919636 -0.4859429
000140 f1 7f a7 be 29 15 98 bf 4c f6 db be 66 d1 53 bf
       -0.327148 -1.1881458 -0.42961347 -0.8274139
000150 42 b3 d6 be d3 0a 3b bc e3 0e d4 3d 08 06 74 bf
       -0.41933638 -0.011416155 0.10354402 -0.953217
000160 48 96 a6 be a8 98 d1 be 81 6c aa bf 55 67 a4 be
       -0.3253653 -0.4093678 -1.3314363 -0.32110086
000170 e6 45 77 bf 75 aa c2 be f0 e7 9e be e0 99 57 3b
       -0.9659103 -0.38020673 -0.3103633 0.0032898113
000180 c4 9c bb be 38 e0 27 be 40 86 1d bf 67 33 e9 be
       -0.3664304 -0.16394126 -0.61532974 -0.4554703
000190 5c fb cb be a6 ee 40 3f 71 5b fe 3d 42 dc 3f be
       -0.3984021 0.7536415 0.12419785 -0.18736365
0001a0 15 78 b9 be 0b 53 c3 be b9 5c dc be 1d b0 0c 3f
       -0.36224428 -0.38149294 -0.43039492 0.5495623
0001b0 2e 2a 00 bf 32 f6 53 bf 7b 7a e6 be b6 03 be be
       -0.5006436 -0.8279754 -0.4501532 -0.37112206
0001c0 1c ad e6 be 9a 69 a6 be 7d 9e b7 bf d2 ae 9b 3d
       -0.45053947 -0.32502443 -1.4345242 0.07601704
0001d0 ec 50 21 be 38 2e bb be b7 d4 ca be b9 25 b4 be
       -0.15753525 -0.365587 -0.39615414 -0.3518503
0001e0 3e 3f f7 be a8 8c b3 be 98 93 cd be 63 12 e5 be
       -0.48290437 -0.3506825 -0.40151668 -0.4474059
0001f0 17 ff ce be 86 17 9f be b7 6d b1 bf e0 47 7d bf
       -0.40428993 -0.31072634 -1.3861607 -0.989378

model/dense/BiasAdd/ReadVariableOp/resource f4 [2]
000000 6a 66 dd 3d 7c 66 dd bd
       0.108105496 -0.10810563

model/activation_15/Relu;model/batch_normalization_15/FusedBatchNormV3;model/depthwise_conv2d_7/depthwise;model/depthwise_conv2d_7/BiasAdd;model/depthwise_conv2d_11/depthwise;model/depthwise_conv2d_7/BiasAdd/ReadVariableOp/resource f4 [128]
000000 34 e4 c9 be fa 28 c6 be e4 96 2a be e2 2f a9 bd
       -0.39431918 -0.38703138 -0.16659123 -0.08261086
000010 d5 00 9c be 43 21 e8 be 47 08 13 be 04 75 8f bf
       -0.30469385 -0.45337877 -0.14358626 -1.1207585
000020 9d 83 81 bf 00 bb 0d bf 61 2d 11 bf 6b 4f 8c be
       -1.011829 -0.55363464 -0.5670987 -0.2740434
000030 c0 80 c8 be b2 d0 03 bf 2d 96 0b bf fe a5 62 be
       -0.39160728 -0.5149032 -0.54526025 -0.22133633
000040 f2 ad ab bf 73 64 c3 be cc 76 b1 be bf be 16 3d
       -1.3412459 -0.38162574 -0.34660947 0.036803003
000050 db 10 d4 be 9e 21 5f bf 7d 38 e7 be 94 fe bf be
       -0.4141911 -0.8716067 -0.45160285 -0.37498915
000060 32 b7 e8 be 66 c7 1e bf 2d 01 b3 be 31 52 c6 be
       -0.45452267 -0.6202301 -0.34961835 -0.38734582
000070 78 0a a9 be 0c 3c c2 be e5 78 b9 be 10 4d 8a be
       -0.330158 -0.37936437 -0.36225048 -0.2701192
000080 52 0d 39 bf 9e 08 33 bf f2 b7 32 be ee 2f 5e bf
       -0.7228595 -0.69935024 -0.17452982 -0.86791885
000090 f9 d0 b3 be 76 4d 33 bf ca 0e 36 bf 49 9c 7a 3f
       -0.3512037 -0.7004007 -0.71116316 0.9789472
0000a0 47 94 eb be d4 21 97 bf 24 d0 ff be 9e a7 82 bf
       -0.46011564 -1.1807199 -0.49963486 -1.0207403
0000b0 cc 17 1d bc f2 f4 83 be 4f 39 98 3e 2c 28 ab be
       -0.009588193 -0.25772816 0.29731223 -0.33429086
0000c0 93 45 22 3f 00 b3 b5 be 0a cb 2b 3d 37 e6 ee be
       0.6338741 -0.3548813 0.04194168 -0.46660015
0000d0 b2 4b 0a bf e8 60 8f bd 46 40 8e 3d ed 8c c6 be
       -0.5402175 -0.07000905 0.06945853 -0.38779393
0000e0 6c 0e f2 be 42 e2 e1 be 56 4c 4c bf 58 ba 72 3c
       -0.47276628 -0.44117934 -0.7980398 0.014814936
0000f0 58 32 bb bd 4a db 26 bf 98 59 ca 3d 40 97 8e 3c
       -0.09140462 -0.6517836 0.0988037 0.017406106
000100 29 19 38 bf 86 18 a1 3d 66 d9 18 bf 81 82 8c 3f
       -0.7191339 0.078660056 -0.59706724 1.0977327
000110 ae 36 6c bf cd 2d f1 be 75 75 7d be 3c 72 cb be
       -0.92270935 -0.47105256 -0.24751838 -0.3973559
000120 b9 ab 94 be ca a9 f2 3c b3 34 2d bf f1 9c e4 be
       -0.29037264 0.029621977 -0.6765854 -0.44650987
000130 52 84 b9 3c e7 ab 08 bf c3 11 48 bf 68 0f bd be
       0.022646103 -0.533873 -0.781521 -0.36925817
000140 e3 2c 72 bf 19 27 8f be de ef 58 be 7d b9 39 be
       -0.9459974 -0.27959517 -0.21185252 -0.18137164
000150 17 d3 f0 3e 7a f5 0a bd 7a 5a c0 be c2 51 c2 be
       0.4703605 -0.03392551 -0.37569028 -0.37953
000160 94 83 c7 be 9a f3 d5 be fa c1 e0 be 1c dd b0 be
       -0.38967574 -0.41787416 -0.43897992 -0.34543693
000170 7b 69 5e bf 44 78 4d 3e 81 55 1f bd 98 dc ba be
       -0.868797 0.20065409 -0.038899902 -0.36496425
000180 d6 89 93 bf 67 d6 c3 be 9c e6 f0 3b 6a c2 b5 be
       -1.1526439 -0.38249514 0.0073517095 -0.3549989
000190 d0 86 19 bf 22 f0 1a 3e b0 c5 da 3d 9b 35 7f bf
       -0.5997133 0.15130666 0.10682237 -0.9969117
0001a0 4b aa 15 bf 0a a8 87 bf 78 1d d5 be c7 ab 6d be
       -0.5846297 -1.0598156 -0.41624045 -0.23210059
0001b0 e2 03 dd be 51 cd a1 be b4 f0 06 bf c0 2b cf be
       -0.43167025 -0.31601956 -0.52711034 -0.40463066
0001c0 3a 0b 1d bf 30 5a 15 bf 5c 18 ca be a0 63 77 be
       -0.61345255 -0.5834074 -0.3947171 -0.24159098
0001d0 2c 70 3c be a0 c0 9c bd 16 94 cb be b1 f9 78 3e
       -0.18402165 -0.07653928 -0.39761418 0.24314
0001e0 be de 87 be 0f b7 03 bf e0 84 9d 3c 78 10 cd bc
       -0.26537126 -0.514512 0.019228399 -0.025032267
0001f0 7e 7a 1c bf 18 e9 0f bf 94 93 e8 be ba f6 39 bf
       -0.6112441 -0.5621505 -0.45425093 -0.726421

model/conv2d_1/Conv2D f4 [16, 8, 1, 1]
000000 c6 36 91 3f 71 49 4c be af 92 08 3f e3 bb b3 be
       1.134484 -0.1994989 0.5334882 -0.35104284
000010 c2 37 44 3f 62 18 a6 3c c9 3a 22 3e 05 63 fd bc
       0.7664758 0.020275299 0.15842737 -0.030931005
000020 4a 4d 3c bd 2c 5b 74 3e 2a 13 0b bf a0 40 81 bf
       -0.045972146 0.23862904 -0.5432612 -1.0097847
000030 85 e1 10 3f df 8b 12 bf d5 d1 7d 3f 79 46 b3 be
       0.56594115 -0.57244676 0.99148303 -0.35014704
000040 44 8b f7 3e da dc 2a 3f 27 8b 11 bd d6 8b dd bd
       0.4834844 0.6674324 -0.035533097 -0.10817687
000050 de 0e 88 be b7 06 0e bc d6 93 96 3e 86 4b d6 bb
       -0.26573843 -0.008668593 0.29409665 -0.006539765
000060 92 f0 33 3d 3a 83 13 be 18 f3 84 3e 90 62 0e 3e
       0.043930598 -0.14405528 0.25966716 0.13904786
000070 0e 86 ac 3e 96 ce 2d 3d 11 06 9a bd a0 09 87 be
       0.33696026 0.042433344 -0.07520688 -0.2637453
000080 0e e9 80 bd 4b 7d 8a 3d 5f 32 46 3e b6 0b 6f bc
       -0.06294452 0.06762179 0.19355153 -0.014590194
000090 01 60 10 3e 50 cf e6 bb 1a 8b 70 3e 1d 20 83 be
       0.14099123 -0.0070437565 0.23490563 -0.25610438
0000a0 a0 bf 1c bd f7 37 29 3d f7 b9 4c 3d 3d 57 09 3e
       -0.038268685 0.041313138 0.049982037 0.13412185
0000b0 02 d9 d5 3d d9 ae df 3e 21 0f c6 bc 7a cf 39 3d
       0.104417816 0.43688086 -0.024177136 0.04536388
0000c0 54 f5 07 bd 78 4e 39 3d ae c2 f0 bd b9 a3 6d 3f
       -0.033192948 0.04524085 -0.11755882 0.92827946
0000d0 c0 75 9e 3e ff d5 4d bd 54 90 66 3e 00 10 2f 3d
       0.3094921 -0.05025291 0.22515994 0.04273987
0000e0 0d f0 87 bd 96 32 90 bd fc 77 99 3e 04 a0 98 bf
       -0.06637583 -0.070408985 0.29974353 -1.1923833
0000f0 dc 14 27 be f3 ef 1a 3e dc 30 31 be 34 81 62 3e
       -0.16316551 0.15130596 -0.17303795 0.221196
000100 2a f2 0c 39 e4 ff f9 bd 4e 35 51 be 93 df 71 3d
       0.00013441654 -0.122070104 -0.2043049 0.059051108
000110 47 31 dd 3d 30 d6 a3 bc 46 84 7d bd e6 ec ac be
       0.108004145 -0.019999593 -0.061893724 -0.3377449
000120 be d0 b7 bd 62 3c cb 3e 9b 6c 26 3d 3c e4 a0 3d
       -0.08975361 0.39694506 0.040630918 0.07856032
000130 4d 3b 4c 3e 1b ae ba 3d 6d 44 a2 3e a7 75 4d bd
       0.19944496 0.09115239 0.3169283 -0.05016103
000140 18 fb ab 3d 76 ac 9e bd 02 a9 c4 bd 2a 5e 21 be
       0.08397502 -0.07747738 -0.09602548 -0.15758577
000150 cc 10 5d bd 16 a7 f9 be ed 60 0d bd 15 aa d1 bd
       -0.053971097 -0.4876029 -0.034516264 -0.10237519
000160 ee a9 ee be 3f 74 ee bd 6b 14 23 bd 4b 1b 01 bd
       -0.4661402 -0.11643266 -0.039814394 -0.03152017
000170 00 76 23 bd 21 3d 7c bd 25 fd b6 3e 82 88 0e be
       -0.039907455 -0.061581735 0.3574001 -0.13919261
000180 77 9d 85 3e 53 fa 6b be b9 92 96 3e e4 14 93 3f
       0.260967 -0.2304471 0.29408816 1.149075
000190 e7 68 75 be 89 2c f9 be 03 21 ea 3e a7 37 2e 3f
       -0.23965798 -0.4866679 0.4572831 0.6805367
0001a0 44 a8 d4 bd 32 b4 e8 3d 5f 56 d4 3e c4 e2 61 3d
       -0.103836566 0.113624945 0.41472146 0.0551479
0001b0 fc c9 5a 3d 2c e4 6f 3e 69 60 e9 3d 22 cf 12 3e
       0.053415284 0.23426884 0.11395342 0.14336827
0001c0 47 0c 4d bf 12 49 dc be 18 8f 1f 3f d3 dc 84 3e
       -0.8009686 -0.43024498 0.6232772 0.25949726
0001d0 0b fd 39 bf c1 23 93 be e9 32 6a bf 66 0e 02 bf
       -0.7265174 -0.28738216 -0.9148393 -0.5080322
0001e0 bc 3e b4 bd d0 84 36 3e 35 d9 e0 bd 9f 9a 92 be
       -0.08801028 0.17824101 -0.10978929 -0.28633592
0001f0 03 3b c8 be 7d b7 03 be 0d cc 8a 3f 99 71 c5 bd
       -0.39107522 -0.12862964 1.0843521 -0.09640808

model/activation_2/Relu;model/batch_normalization_2/FusedBatchNormV3;model/conv2d_1/BiasAdd/ReadVariableOp/resource;model/conv2d_1/BiasAdd;model/depthwise_conv2d_1/depthwise;model/conv2d_1/Conv2D f4 [16]
000000 1e b9 4a bf f4 f8 77 3f 71 9d 6c be a5 82 ce 3e
       -0.79188716 0.9686425 -0.23106934 0.4033405
000010 56 09 0f 3f 9c 04 a8 3d f4 d7 7a bf f6 19 dd 3f
       0.5587362 0.08204004 -0.9798577 1.7273548
000020 d6 3d 8a 3f a2 e2 b2 bc de 2e b8 3f ec 89 32 3f
       1.0800121 -0.021836583 1.4389303 0.697417
000030 9b 1b cd bf 97 39 0f bd fa 55 e6 3f ce 72 0a be
       -1.602405 -0.03496703 1.7994988 -0.13520357

model/activation_13/Relu;model/batch_normalization_13/FusedBatchNormV3;model/depthwise_conv2d_6/depthwise;model/depthwise_conv2d_6/BiasAdd;model/depthwise_conv2d_11/depthwise;model/depthwise_conv2d_6/BiasAdd/ReadVariableOp/resource f4 [128]
000000 d4 84 d5 3f b5 32 80 bf 8e 93 a9 bd 80 53 a3 3f
       1.6681161 -1.0015475 -0.08280097 1.2759857
000010 80 92 87 be 28 98 95 bd c8 35 e2 3c 04 70 b9 3f
       -0.26478958 -0.07304412 0.027613536 1.448731
000020 92 15 bb bd 54 72 98 3f a8 61 1f bf 49 a8 9c be
       -0.091349736 1.190989 -0.62258387 -0.3059714
000030 8d 93 ee bd 29 58 e3 3e d4 b0 bc 3f c0 f7 96 bd
       -0.11649237 0.44403198 1.4741464 -0.07371473
000040 c6 11 5b 3d 05 2a c1 3e a6 72 22 bf e2 aa 1a bf
       0.053483747 0.3772737 -0.6345619 -0.60416996
000050 8e 9c 96 bd 6d 7c df bf a1 3f b9 3d 98 f2 88 be
       -0.07354079 -1.7459847 0.090453394 -0.26747584
000060 7b c8 9b bf b8 9b 5e be c5 53 9a 3e 31 d6 87 be
       -1.2170557 -0.2173909 0.30142036 -0.26530603
000070 b2 5c 32 3c 25 b5 a8 bf 59 dc 71 be 9c 03 1d 3d
       0.010886358 -1.3180281 -0.23619212 0.03833352
000080 50 b0 1e be 5c 0f fa 3e 20 97 bb 3f 78 20 81 3f
       -0.15496945 0.48839843 1.4655495 1.0088034
000090 c3 43 55 be fa 66 93 3f 71 ff cc bf 79 60 2b bf
       -0.2082663 1.1515801 -1.6015455 -0.6694408
0000a0 c4 a5 3e bf 9d 17 cf bc 02 55 27 bf 4a 80 19 be
       -0.7447169 -0.025279814 -0.65364087 -0.14990345
0000b0 d6 40 34 bf 64 d4 11 bf 9f d8 a4 be 6a c1 0d bf
       -0.7041143 -0.5696471 -0.3219652 -0.5537325
0000c0 ba b4 49 be 77 7b 0f bf 24 7b c5 3e fc 9e 0a 40
       -0.19697848 -0.5604777 0.3857051 2.1659536
0000d0 68 70 c3 be 6f 42 a6 be de d8 24 bd 56 ea f3 3e
       -0.38171697 -0.3247256 -0.040245883 0.47639722
0000e0 30 d2 bc 3f 34 09 db be 39 fc 8f 3f fd b1 ef be
       1.4751644 -0.4278046 1.1248847 -0.46815482
0000f0 b6 57 89 3f ca e7 5d bf c3 3a 64 bf 86 fb 54 3e
       1.0729892 -0.8668181 -0.89152163 0.20799074
000100 bc f5 be bd 89 59 f8 bd 06 df e3 bd c6 e1 cd be
       -0.09324214 -0.121264525 -0.11126523 -0.40211314
000110 0e 4a f4 be 6b c0 d2 3f 3e 14 3b bf d6 df a6 be
       -0.4771275 1.6464971 -0.7307776 -0.32592648
000120 7d 34 b5 be 4a db 99 3d 74 1e 07 bd dc ce 9e 3d
       -0.35391608 0.07512529 -0.032988027 0.07754299
000130 c8 99 96 bc b7 3d 3d bf 20 ea 11 bc 7f ae f2 3f
       -0.018383875 -0.73922294 -0.008905917 1.8959502
000140 f4 01 ab be 20 ef c6 3b b0 85 43 3e 1c 94 35 be
       -0.33399928 0.0060709864 0.19093966 -0.1773228
000150 92 6f 3b bf 1e d6 4c be 16 62 d9 be 05 48 13 bf
       -0.7321712 -0.20003554 -0.42457646 -0.5753177
000160 90 2a ef 3e c1 b5 1b bf 0b df 01 40 5e d9 35 3e
       0.4671216 -0.6082421 2.0292385 0.177587
000170 09 e9 3a bf 43 53 b9 3f 50 79 fc bc 72 0d 4e 3f
       -0.73011833 1.4478534 -0.030819565 0.80489266
000180 74 5a 1b be 84 3a 4c bf d5 e0 d5 be 1b 29 89 bd
       -0.15171224 -0.7977679 -0.41773096 -0.06697293
000190 d8 21 dd bd 85 c1 16 be 2f 6e f4 3f dc 76 06 bf
       -0.10797471 -0.1472226 1.9096125 -0.52525115
0001a0 52 4c 04 bf 7b 66 9e be 5f 7c 12 3e 8b 40 9f bd
       -0.51678956 -0.3093756 0.14305256 -0.077759825
0001b0 2a 6a 66 be ee 56 f7 bd 30 73 c9 be fa d4 05 3e
       -0.22501436 -0.120771274 -0.39345694 0.13069525
0001c0 f7 9c ad 3d f3 48 c9 be 60 42 67 bc 28 b1 15 be
       0.08477204 -0.39313468 -0.014114946 -0.14618361
0001d0 34 42 ad 3e cf 10 aa 3f d2 49 f7 be d5 85 5a bf
       0.3383957 1.328638 -0.48298508 -0.8536046
0001e0 6d a6 2e 3e ba 35 87 bd 37 eb d0 bd 2c c5 b9 bd
       0.17055674 -0.066020444 -0.10201114 -0.09070811
0001f0 93 f9 65 bf 8e 03 a0 3e d0 aa 20 3c 3b 89 74 be
       -0.89833945 0.31252712 0.00980635 -0.23880474

model/conv2d/Conv2D f4 [8, 3, 3, 3]
000000 ad f3 1e 3f e8 48 0e 3f 97 d7 59 bc f4 b4 30 3d
       0.6209057 0.55579996 -0.0132960295 0.04314132
000010 29 bd 6b be c3 32 ac 3e a5 67 f5 3e 41 17 93 3f
       -0.23021378 0.33632478 0.47930637 1.1491472
000020 43 0d 46 3f 35 ee c2 bf 1e c5 00 c0 43 1a 05 c0
       0.77363986 -1.5228945 -2.012031 -2.079728
000030 fb 84 c3 bf 33 05 2e bf 66 8a 25 3c 01 ab a5 be
       -1.5274957 -0.67976683 0.010103798 -0.32357028
000040 ae 6c ca bf c7 11 b8 bf 02 bb 95 3f 18 6d d5 3f
       -1.5814416 -1.4380425 1.1697695 1.6673918
000050 a1 7c b5 3f 38 f4 b6 3f 2a 04 5a 3e 57 d1 2c 3f
       1.4178659 1.429328 0.21290651 0.6750693
000060 79 fa ae bd 39 d0 e4 3e 77 d4 93 3c 4d e2 29 bf
       -0.085438676 0.4469011 0.018045647 -0.6636093
000070 02 09 8f bf 86 2e 89 bf 5f 63 bf 3d 9f 6d 96 bf
       -1.1174624 -1.0717323 0.093451254 -1.1752204
000080 32 3b 17 bf 12 19 0c 3f 3a f0 2c 3f 13 64 9f 3e
       -0.590747 0.54725754 0.67554057 0.31131038
000090 70 38 b8 be a4 79 b2 bc c7 fb 7a be b7 9f fc be
       -0.35980558 -0.021786518 -0.24510108 -0.49340603
0000a0 b2 21 59 3d 95 55 06 3f 20 ba 32 be 56 b9 f7 be
       0.05301065 0.5247434 -0.17453814 -0.48383588
0000b0 ee 15 37 be b4 f0 bc 3f 86 14 fc 3e 53 c8 b2 3f
       -0.1787946 1.4760957 0.49234408 1.3967384
0000c0 76 79 4e 3e 74 40 4f 3f 61 e3 40 3e 5d 01 bd be
       0.20163521 0.8095772 0.18836738 -0.36915103
0000d0 d1 cc ae 3e ff 1b 02 be 35 a0 67 bf d2 ef cb be
       0.34140638 -0.12705992 -0.9047883 -0.39831406
0000e0 31 c4 06 3e 46 c1 f0 3d 55 3d 00 be 0e d1 87 3e
       0.13160779 0.11755614 -0.12523396 0.26526684
0000f0 e5 c7 0f be b2 c7 00 3f 09 e5 b7 3f 94 84 8b bf
       -0.14041097 0.5030471 1.4366771 -1.0899835
000100 f1 72 68 bf d6 04 66 3c be c3 68 bf 94 81 1a bf
       -0.90800387 0.014039239 -0.9092368 -0.6035397
000110 0b 8e 80 3e 69 7f d9 3d 55 c5 07 3e a3 ef 83 3e
       0.2510837 0.10620005 0.1325887 0.25768766
000120 fc 39 5b bf 9e ca 46 bf 78 fa cd be ec 31 1e be
       -0.8563535 -0.7765292 -0.40230155 -0.15448731
000130 d7 18 82 3e f8 18 fe 3d 9c bc 8f 3e 98 a8 f5 3d
       0.25409576 0.12407106 0.28073585 0.11995047
000140 7a ee d5 3e a7 70 94 3f 7c 2b 01 bf 08 ce 9f 3f
       0.41783506 1.1596879 -0.50456977 1.2484751
000150 1c 18 30 3f 8a c0 a3 bf f9 9f 28 3f 48 10 3a 3f
       0.6878679 -1.2793133 0.658691 0.72681093
000160 bf 88 a4 bf 96 30 9a bd af 70 07 3f 7d c4 b2 bf
       -1.2854232 -0.07528798 0.52906317 -1.3966213
000170 f8 30 c3 3e 29 fe b8 3e 31 39 7b bf 82 e6 1d bd
       0.38123298 0.3613141 -0.9813414 -0.038549908
000180 58 66 e9 be 85 5c 97 bd 55 15 1d 3f 88 e4 8d be
       -0.45585895 -0.073906936 0.61360675 -0.27713418
000190 a3 58 86 bf f3 8f e6 bd 5d 4f fd 3e b9 d7 dd bf
       -1.04958 -0.11257925 0.49474612 -1.7331458
0001a0 2c 55 4a 3d 01 51 c5 3e 2d ab 05 3f f3 a3 b8 3e
       0.049397632 0.38538364 0.5221432 0.36062583
0001b0 db 3d 71 be 4b 9c fc be b9 e5 1f bf f2 e1 4d 3e
       -0.23558752 -0.49337992 -0.62459904 0.20105723
0001c0 ce c2 b2 be ec 02 62 bf 92 2a db 3d 73 57 d9 3d
       -0.3491425 -0.8828571 0.10701479 0.10612383
0001d0 93 f8 dd be 08 94 a6 3e dc d2 2e 3e 12 7e 44 be
       -0.4335371 0.32534814 0.17072624 -0.19188717
0001e0 b4 80 fa 3e fe 2e ba be 51 76 90 be a6 13 5b 3e
       0.48926318 -0.36363977 -0.28215268 0.21394214
0001f0 0d 1e 09 3f d4 bd 1d bf e5 67 f6 3d ee 74 7c 3e
       0.5356148 -0.6161778 0.12031535 0.2465398
000200 06 8f 31 3e 7a a0 f1 be 3c a2 83 be 94 e4 bc be
       0.17339715 -0.47192746 -0.25709713 -0.3689314
000210 23 4b 6d 3e 43 ad f8 be f1 04 01 bf f3 14 93 bd
       0.23173194 -0.48569688 -0.50398165 -0.0718173
000220 d1 28 71 be 40 c1 1c be c4 6c 4c 3e 30 57 5d 3d
       -0.23550726 -0.15308094 0.19963366 0.054038227
000230 5a c7 1b be 34 01 1a 3e 87 9e a8 3e 33 22 fb bb
       -0.15212765 0.15039521 0.32933447 -0.007663989
000240 3d 01 42 3e 79 da 4d be b9 08 b3 bc 7f 9e 8c 3e
       0.18945785 -0.20102872 -0.021854745 0.27464673
000250 2c c7 c4 bd 6d 76 6c be 0b a8 65 3e 7d 20 1b 3e
       -0.096083015 -0.23092051 0.22427385 0.15149112
000260 bd 2c 4c bd 43 56 e8 bd 0b 4f 44 be 26 fa bf 3c
       -0.049847353 -0.11344578 -0.19170777 0.02343471
000270 8d 83 f8 3d 66 3c 1b 3e e4 85 98 be ea b0 68 bd
       0.12134466 0.15159759 -0.2978965 -0.056809343
000280 9c 52 f0 3c bc af 17 3d 3f 03 25 3f 7c a4 47 3f
       0.029336266 0.037032828 0.6445808 0.7798536
000290 ef 88 80 3e 54 d2 e7 3e 92 a3 4d bd ed 3e c3 3e
       0.25104472 0.45277655 -0.05020482 0.38133946
0002a0 73 d1 85 3e b0 85 5a 3f 3b 88 3c 3f bb fb b7 be
       0.2613636 0.8536024 0.7364537 -0.35934243
0002b0 d7 0c ec be 91 8a 01 bf ec df 07 bf 7b e1 19 bf
       -0.46103546 -0.5060206 -0.5307605 -0.6010968
0002c0 a9 26 10 bf 75 50 2c bf bb 9d 97 bf d7 14 90 bf
       -0.5630899 -0.6731027 -1.184501 -1.125636
0002d0 0c e7 2b be 88 f4 ee be 1f 9e 9e 3e 0a 2c 2e bd
       -0.16787356 -0.46670938 0.30980012 -0.042522468
0002e0 67 53 00 3f 2c 31 9f 3e d2 10 b2 3e 32 e0 29 3f
       0.5012726 0.31092203 0.34778458 0.6635772
0002f0 c4 f3 0d be 8f a6 ca 3d 74 54 8b be 66 ed f5 be
       -0.1386252 0.0989505 -0.2721287 -0.48032683
000300 b3 f4 88 3d d7 28 82 3d 30 86 b9 be 6a fa 8d 3d
       0.06687298 0.06355446 -0.3623519 0.06932528
000310 60 58 e0 bd 02 24 49 be 0c 30 23 bc 80 8e 19 3e
       -0.10954356 -0.19642642 -0.009960186 0.14995766
000320 d0 fd 08 bc 8d d3 ee 3d 48 02 8a bd ab 09 01 be
       -0.008361295 0.11661444 -0.06738716 -0.12601344
000330 01 8c 85 bd fa 9e 5e 3e 87 61 2b 3e 0b 21 14 be
       -0.06520844 0.21740332 0.16736422 -0.1446573
000340 f9 d6 8c 3e d8 a1 47 bd 04 9c 28 3d b3 6f 09 be
       0.2750776 -0.04873833 0.041164413 -0.13421516
000350 8e 86 8b be 96 d1 36 3e 11 c0 2b be ca 02 86 be
       -0.27251095 0.17853388 -0.16772486 -0.26174003

model/activation_11/Relu;model/batch_normalization_11/FusedBatchNormV3;model/depthwise_conv2d_5/depthwise;model/depthwise_conv2d_5/BiasAdd;model/depthwise_conv2d_5/BiasAdd/ReadVariableOp/resource f4 [64]
000000 a7 94 7f be ae 20 98 3f 83 f6 49 bd f0 5b c7 3f
       -0.2495905 1.1884973 -0.049307358 1.5574932
000010 8c a4 33 bf 66 0d 9c bd 81 86 07 3d bb 9c bb 3d
       -0.70172954 -0.07619743 0.033087257 0.09160753
000020 0b cf ff 3f 1e f5 60 be 12 6e 52 bf 1a ee 92 3f
       1.998506 -0.21968505 -0.82199204 1.1478913
000030 4c ce d6 3f 24 d4 fa be 0d 2c 08 bf ce be 5e be
       1.6781707 -0.48989975 -0.53192216 -0.21752474
000040 b1 6b ca 3f b8 a2 63 bf 5f 92 38 bf a9 e7 c1 3f
       1.5814115 -0.88920164 -0.72098345 1.5148822
000050 00 e3 30 3c 64 f9 ee bd 4e 06 0f bf b4 72 db be
       0.0107963085 -0.11668661 -0.55868995 -0.4286095
000060 8e ec d9 be 6e fe f5 3c 43 91 4c bf 1b 99 00 bf
       -0.4256329 0.030028548 -0.7990915 -0.5023362
000070 ad 21 61 40 6f a3 9f be 0d 00 5b bf 02 f4 b1 3f
       3.5176804 -0.31179377 -0.8554695 1.390259
000080 34 c9 08 bf 12 82 ea bd 33 ef c6 be 75 db a5 bd
       -0.5343201 -0.1145059 -0.3885437 -0.08098499
000090 83 70 a5 3f 38 7c c0 be b5 23 db 3f fe 78 be be
       1.2924961 -0.3759477 1.7120272 -0.37201685
0000a0 cd 15 cf 3f c1 08 c3 be 56 c4 42 bf b3 74 a9 bf
       1.6178528 -0.38092616 -0.76080835 -1.3238739
0000b0 7c 84 d6 3f 8d d5 f0 3f 68 9a 1f bf 5c c3 04 bf
       1.6759181 1.881517 -0.6234498 -0.51860595
0000c0 33 65 1a 40 60 39 c6 bd c8 03 3c 3c e7 a0 5f bd
       2.4124267 -0.09678912 0.011475511 -0.054596808
0000d0 e5 63 fb 3f 46 04 db be a9 ee 59 3e dc 83 1b bf
       1.963986 -0.42776698 0.21282448 -0.60748076
0000e0 04 98 9a 3d 45 e7 b8 be 00 48 76 be 00 eb 09 bf
       0.07548526 -0.36113945 -0.24050903 -0.53874207
0000f0 0c 37 9d 3e af 3e c7 be a0 04 3e bf d1 c6 61 3e
       0.3070606 -0.3891501 -0.7422581 0.22048499

model/activation_9/Relu;model/batch_normalization_9/FusedBatchNormV3;model/depthwise_conv2d_4/depthwise;model/depthwise_conv2d_4/BiasAdd;model/depthwise_conv2d_5/depthwise;model/depthwise_conv2d_4/BiasAdd/ReadVariableOp/resource f4 [64]
000000 46 bb 06 be a4 2a 27 bf 99 a5 49 3f e4 99 33 bf
       -0.13157377 -0.6529944 0.78768307 -0.70156693
000010 6d f1 5f be 35 39 c5 be 40 21 bd bd 8c 5a 26 bf
       -0.2186944 -0.38520208 -0.092348576 -0.64981914
000020 17 f0 03 bf 3c be 16 3f 53 a6 4c be b3 bf 28 bf
       -0.51538223 0.58884025 -0.19985323 -0.6591751
000030 40 be 8d bf 50 63 81 bd ec 6f 92 3e 8e 40 91 be
       -1.1073685 -0.063177705 0.28601015 -0.28369564
000040 8a 45 35 be b4 2c 30 bf a2 20 83 3e 99 de 83 3f
       -0.17702308 -0.6881821 0.25610834 1.0302306
000050 02 66 e7 be fa dd 0f bf 18 1b 76 3f 24 5d 87 3f
       -0.45195013 -0.56198084 0.9613509 1.0575299
000060 fe 44 c0 bc aa ab db be 2d bd 1f bf d4 3b 61 3f
       -0.023470398 -0.42904407 -0.62398034 0.87981915
000070 90 bb e3 3f ce c5 f8 3d 8e 68 02 bf 73 1e 28 3e
       1.7791615 0.12147103 -0.5094079 0.16417865
000080 ba e8 0d bd 5d e4 68 3f 21 a4 2a 3f dc ab 0e bf
       -0.034645773 0.90973455 0.6665669 -0.55730987
000090 12 7d 7a 3e e2 07 01 bf 14 3a c9 bf 4b 3f 2a be
       0.24461773 -0.50402653 -1.5720849 -0.16625707
0000a0 13 ea af 3f f0 ec 92 bc 5c a7 63 be ef f3 30 bf
       1.3743309 -0.017935246 -0.22231811 -0.69122213
0000b0 2a 97 2a bf b8 1d 7a 3f 6c c0 d0 be 54 44 aa be
       -0.6663691 0.977016 -0.40771806 -0.33255255
0000c0 a0 b0 4f 3b e4 6b 79 3d 80 a9 59 bd df 2e 66 bd
       0.003169097 0.06089391 -0.053140163 -0.056197044
0000d0 be 8f 4d 3e 51 18 7e 3f e1 8a 4b 3f 88 c1 e2 bd
       0.20074365 0.99255854 0.7950879 -0.110720694
0000e0 7a 20 fe be f4 9a 89 be 43 53 40 3f e6 47 d0 be
       -0.49634153 -0.26876032 0.7512705 -0.40679854
0000f0 d7 8b 2e be 06 3e 31 3e 10 13 bb 3c b4 12 2f 3f
       -0.17045532 0.17308816 0.022836238 0.68387914

model/activation/Relu;model/batch_normalization/FusedBatchNormV3;model/conv2d/BiasAdd/ReadVariableOp/resource;model/conv2d/BiasAdd;model/depthwise_conv2d/depthwise;model/conv2d/Conv2D f4 [8]
000000 35 d4 4b 3f 9e 16 11 3f d7 85 c0 3f 9a e6 81 3f
       0.7962068 0.56675136 1.5040845 1.0148499
000010 93 25 af 3f 2e 09 49 3f d6 78 0e 3f d2 0d a9 3f
       1.3683342 0.7852963 0.5565313 1.3207343

model/activation_7/Relu;model/batch_normalization_7/FusedBatchNormV3;model/depthwise_conv2d_3/depthwise;model/depthwise_conv2d_3/BiasAdd;model/depthwise_conv2d_3/BiasAdd/ReadVariableOp/resource f4 [32]
000000 50 14 5d 3d 95 76 b9 3f 36 42 0d 3f 06 42 42 3e
       0.05397445 1.4489313 0.55179155 0.18970498
000010 e5 50 70 3f b1 49 16 40 4b 79 99 3d 16 9d bd 3f
       0.93873435 2.3482478 0.07493838 1.4813564
000020 48 e3 01 40 da 2d ca 3d 78 b1 84 bf ae a3 f9 bd
       2.0294971 0.09872027 -1.0366659 -0.121894225
000030 63 7f 96 be 83 43 02 40 80 91 90 3f 72 24 d4 3f
       -0.29394063 2.0353706 1.1294403 1.6573622
000040 66 8a ed 3f 73 f2 9c 40 be e3 10 40 0a 4a 93 3f
       1.8557861 4.904596 2.2639003 1.150697
000050 84 4d 21 bf 9f 10 03 40 e0 fa 54 be e1 4a e5 be
       -0.63008904 2.0478895 -0.20798826 -0.4478369
000060 93 a5 c0 be 3c 2f 68 be 34 2c 03 40 de bd 81 bc
       -0.37626323 -0.22674268 2.049573 -0.015837606
000070 17 c1 e3 3f c8 a4 da 3d 54 25 ee 3d 5d c9 e5 3f
       1.7793301 0.10675961 0.116282135 1.7952076

model/activation_5/Relu;model/batch_normalization_5/FusedBatchNormV3;model/depthwise_conv2d_2/depthwise;model/depthwise_conv2d_2/BiasAdd;model/depthwise_conv2d_3/depthwise;model/depthwise_conv2d_2/BiasAdd/ReadVariableOp/resource f4 [32]
000000 9d 5d 95 bf 38 2e 85 bf 26 bb 43 3f 3a 6f 3d bf
       -1.1669194 -1.040473 0.7645744 -0.73997843
000010 e3 81 9b 3f eb 62 76 3f 74 95 8f be e2 fd 88 3f
       1.2149013 0.96244687 -0.2804371 1.0702479
000020 98 c5 0c bd ff 86 9d be 0e bf c5 bd 25 2e db 3e
       -0.034368128 -0.30767056 -0.096555814 0.42808643
000030 30 9d 5a 3d c3 ae 3a 3f 0e 57 0d bf 98 3f 1c bf
       0.053372562 0.72922915 -0.5521096 -0.61034536
000040 f8 89 90 bd a0 8f 2e bc 98 e6 ea bd 3f cc a0 be
       -0.070575655 -0.01065436 -0.114697635 -0.31405827
000050 05 e0 38 3f 5b 68 69 bf 11 db c1 3f c0 6f c5 3c
       0.72216827 -0.9117486 1.5144979 0.024101138
000060 58 8a 96 3f 58 d8 60 3d 0d 20 0d bf f7 9d 02 be
       1.1760969 0.05489382 -0.5512703 -0.12755571
000070 2a bb f6 bd e0 cd ac bc 5a a3 09 40 bc e5 53 bf
       -0.120474175 -0.021094263 2.1505952 -0.8277242

model/activation_22/Relu;model/batch_normalization_22/FusedBatchNormV3;model/conv2d_11/BiasAdd/ReadVariableOp/resource;model/conv2d_11/BiasAdd;model/depthwise_conv2d_11/depthwise;model/conv2d_11/Conv2D f4 [128]
000000 94 75 c1 bd ce 24 b2 bd 71 3e d7 3e 5b fb e5 bd
       -0.094462544 -0.08698426 0.42039827 -0.11229583
000010 dd 27 b4 bd 0e 65 0a bd 9f a4 40 3f 08 84 9b be
       -0.08796666 -0.03378778 0.7525119 -0.3037417
000020 13 c7 a1 3e 63 c8 34 3f 42 fe 61 3f 05 aa f2 bd
       0.31597194 0.70618266 0.8827859 -0.11848835
000030 72 3a 17 3e 0a 4c 69 be 50 5a ab 3e fd cc 89 3e
       0.14768389 -0.22782913 0.3346734 0.26914206
000040 a6 44 3d bd cf 0f 89 3e b4 cc 95 3d f6 ba a2 bd
       -0.046208046 0.26769873 0.07314435 -0.07945816
000050 79 10 ff bd fc 20 dc bc a8 1f 0f 3f 22 2b 5f bd
       -0.12454314 -0.026871197 0.5590768 -0.054484494
000060 6a 29 c6 bd 42 a6 87 bd 7e 82 89 be 4b dd c8 3e
       -0.09675868 -0.06623508 -0.2685737 0.39231333
000070 3c 49 3d 3d ba c8 7d bd fd 6b e4 bd 81 38 9d 3c
       0.04621242 -0.061959006 -0.1115341 0.019191982
000080 36 6f c3 3e 91 c2 54 be 4c b0 08 bc 6e 15 40 3d
       0.38170785 -0.20777346 -0.008342814 0.046895437
000090 b4 19 2c ba 88 4b 25 be 4a 60 28 be 1a 64 cc 3e
       -0.00065651094 -0.16142094 -0.16442981 0.3992012
0000a0 99 eb 16 be 38 89 80 3d 29 e4 07 be 90 c9 25 3f
       -0.14738311 0.062761724 -0.1327063 0.64760685
0000b0 c5 5d 85 be ac b0 c7 bd b7 48 4e be 28 67 e1 bc
       -0.26048103 -0.09750494 -0.20144926 -0.027515009
0000c0 39 42 33 3d cb ec 63 be 14 fa f4 3b eb 05 16 3f
       0.043764327 -0.22258298 0.0074761007 0.5860278
0000d0 90 d1 79 3f b1 ee c4 3c 40 34 e0 3e 88 83 0d bb
       0.9758539 0.024039598 0.43789864 -0.0021593291
0000e0 97 a5 15 be 88 c2 31 be d0 2a cb bc a2 b2 c9 3e
       -0.14613949 -0.17359364 -0.024800688 0.393941
0000f0 a4 9f fe bd 5f 02 b6 3d b9 8a a9 3d 17 8d 37 bd
       -0.12432793 0.08887171 0.08278412 -0.044812288
000100 40 f8 f8 bd 7a 10 ff 3e 78 7d 15 bd f0 e3 d8 bc
       -0.12156725 0.49817258 -0.03649661 -0.026475877
000110 91 3e 3b 3d b3 c7 22 3f 20 c7 fc bc ec 02 21 bd
       0.045713965 0.63585967 -0.030856669 -0.039309427
000120 76 d7 c1 3e 3a 11 5d bd ef df 82 3e 21 31 27 bc
       0.37859696 -0.053971507 0.25561473 -0.010204584
000130 94 85 8e 3f 9b 3c fe 3c 40 ab 85 3e e7 ce 13 be
       1.1134515 0.031034758 0.26107216 -0.14434396
000140 5e 8c 72 be 8a d4 af 3b 23 86 b0 3b c6 e9 69 be
       -0.23686358 0.005365913 0.005387084 -0.22843084
000150 46 51 9f bd 9c fd d9 3e a1 e3 ba bd b4 24 30 3c
       -0.077791736 0.425763 -0.09125448 0.010750938
000160 7b a6 c7 bd f9 83 70 3d ba 7a 26 bd e2 96 1a 3f
       -0.097485505 0.05871961 -0.040644385 0.6038648
000170 e7 29 e3 bd ad de 05 be 9a c6 35 3d 89 80 0b bd
       -0.110919766 -0.13073225 0.044378854 -0.034058128
000180 82 9a b5 bc 32 56 1a 3f 81 52 1b be b8 a1 c5 bd
       -0.022168402 0.60287774 -0.15168191 -0.09649986
000190 28 6d 83 bd c0 c8 07 bd 7f 89 a3 bd 65 68 98 be
       -0.06417304 -0.033150434 -0.0798521 -0.29767147
0001a0 00 d4 75 bc 19 5c a5 bc 9c e5 2d bc 48 15 bc bd
       -0.015004158 -0.020185517 -0.010613825 -0.091837466
0001b0 a8 9d b1 bc 21 7e f9 3d b5 8a 31 3d 89 b7 82 3f
       -0.021681622 0.1218226 0.043345172 1.021226
0001c0 6c 13 f7 3d 0c ac c4 bd 3a dc 10 be f1 af 36 3e
       0.12064251 -0.09603128 -0.1414651 0.17840554
0001d0 2d dd 1c be 76 4c eb bd 72 b0 19 be 25 ca a9 bd
       -0.15318747 -0.11489193 -0.15008715 -0.08290509
0001e0 ff e2 5c 3d 80 d8 b2 39 dd b7 e6 3e be 93 af 3d
       0.053927418 0.0003411211 0.45062152 0.085731015
0001f0 94 90 f3 3c 4c 51 8c bc f7 57 a9 3d e8 21 1d bd
       0.029732026 -0.01712861 0.08268731 -0.038362414

model/activation_20/Relu;model/batch_normalization_20/FusedBatchNormV3;model/conv2d_10/BiasAdd/ReadVariableOp/resource;model/conv2d_10/BiasAdd;model/depthwise_conv2d_11/depthwise;model/conv2d_10/Conv2D f4 [128]
000000 9a fb 7e be 93 e7 4f be ea e1 57 bd 50 41 38 be
       -0.24900666 -0.20303182 -0.052705683 -0.17993665
000010 b3 2d 2d be cd ef c3 3d 24 d8 9a be 07 5b 30 be
       -0.16911964 0.09567223 -0.30243027 -0.17222224
000020 af 65 a5 3e bc a1 74 bd 02 15 a5 3d 02 a3 1e be
       0.3230414 -0.059724554 0.080606475 -0.1549187
000030 37 f7 30 be ff 81 82 be fe 3d 37 bd a3 87 a1 bc
       -0.17281805 -0.25489804 -0.044736855 -0.019717997
000040 66 17 a7 3e 03 16 0e be 8e 08 03 be d1 32 62 be
       0.3263504 -0.13875584 -0.12796232 -0.22089697
000050 30 4f 59 be 5a cf 4e 3e 36 53 65 3d 0a 5e 3e bd
       -0.21221614 0.20196286 0.05598756 -0.0464764
000060 12 d8 87 bd 1d 94 99 3e e5 93 30 3d 03 d1 27 3d
       -0.06633009 0.29995814 0.043109793 0.040970813
000070 af 58 14 be 6c c2 ba bc 10 06 38 be e3 e1 10 3f
       -0.14486955 -0.022797786 -0.17971063 0.56594676
000080 00 be a9 39 7e b9 60 bd fc ae 70 bd d5 10 64 be
       0.00032375753 -0.0548644 -0.058760628 -0.22272046
000090 70 fd 8c be 57 ae e4 bd b0 86 e6 bd 3f 21 65 bd
       -0.27537107 -0.11166065 -0.11256158 -0.05593991
0000a0 aa 5c 56 3c 53 fc fb 3d 12 f9 0e be 1e 8f 88 bd
       0.013083616 0.123039864 -0.139622 -0.066679224
0000b0 40 c5 f7 3b b4 29 3f be 8f a1 af bd 69 e0 17 be
       0.007561356 -0.18668252 -0.08575737 -0.148317
0000c0 87 03 88 be bb 91 95 bc 81 ae aa bd a5 38 85 bd
       -0.2656519 -0.018257966 -0.08334065 -0.06504945
0000d0 4f f8 0a be 15 ce 97 3e e3 52 08 be 16 e8 33 3d
       -0.13571285 0.29649416 -0.13312869 0.043922506
0000e0 cb c5 87 bc c7 1c 1d be 7f 17 fd bc 00 df 68 be
       -0.016573807 -0.15343009 -0.030894993 -0.22741318
0000f0 02 c6 89 bf 13 1e 9c bd 58 ed 36 bc 56 16 ed 3e
       -1.0763552 -0.07622924 -0.011164986 0.46306103
000100 82 a8 d1 3d 14 ed a4 3e 89 80 c5 3c 04 c6 9d bd
       0.102372184 0.32212126 0.024109142 -0.07703784
000110 21 98 e6 bd 4e d8 92 3f f0 ad d4 bd 06 2b c0 3e
       -0.11259485 1.1472261 -0.103847384 0.37532824
000120 33 a5 b3 bd 21 dc 80 3e c8 c1 29 be 19 a8 cf bd
       -0.087717436 0.25167945 -0.16577828 -0.10139484
000130 c7 74 d6 bd ae a5 0b bd b3 b6 cb bd 84 e0 16 be
       -0.10471492 -0.03409355 -0.099469565 -0.14734083
000140 9a 45 44 be 90 08 82 3e fa 2e 39 be 7e 1d ce bd
       -0.19167176 0.25397158 -0.18084326 -0.10064219
000150 bc 89 2c be 4b af 3c be a9 48 96 be 09 88 e1 be
       -0.16849416 -0.18426244 -0.2935231 -0.440491
000160 aa fd a1 3e 29 ba 8d bd 5c 67 0a 3e 92 19 78 be
       0.31638843 -0.06920273 0.13515991 -0.24228504
000170 c1 34 74 3f eb 0e 36 bd 04 1a 26 be 3a af 33 bc
       0.95392996 -0.04444782 -0.16220862 -0.01096707
000180 7d 7f 1a be db f1 bd bd 6c 8d 0e be b8 bf d7 bd
       -0.15087695 -0.09274646 -0.13921136 -0.10534614
000190 69 89 c3 3e fc 2c 9f bd 98 83 b6 3c 58 45 3d be
       0.38190773 -0.07772252 0.022279546 -0.18483484
0001a0 b5 52 34 be c4 12 3a bc 5a d6 1c 3f 5e 68 bb 3c
       -0.17609675 -0.011357013 0.61264575 0.022876915
0001b0 b0 c1 a5 3e 1a ab ad 3c 44 b8 8b bd 7a 50 2a be
       0.32374334 0.021199752 -0.06822255 -0.16632262
0001c0 6f f3 b3 bd 5f 5f 7f 3e d8 9d 47 3e fa 10 20 bc
       -0.08786666 0.24938725 0.19493806 -0.0097696725
0001d0 18 5b 29 bc 00 a3 6a be 0a 0d 72 3e 9b 7e a7 bc
       -0.01033666 -0.22913742 0.23637787 -0.020446112
0001e0 15 66 a8 bd c4 84 98 bd 2a de 35 be a0 91 2c bd
       -0.082225956 -0.07447198 -0.1776053 -0.042131066
0001f0 63 1b b9 3e 03 43 29 be 72 81 cc bd 08 da 27 be
       0.36153707 -0.16529469 -0.09985627 -0.16391766

model/activation_18/Relu;model/batch_normalization_18/FusedBatchNormV3;model/conv2d_9/BiasAdd/ReadVariableOp/resource;model/conv2d_9/BiasAdd;model/depthwise_conv2d_11/depthwise;model/conv2d_9/Conv2D f4 [128]
000000 ef ff a5 bd af aa 93 bd 77 be 70 bf 65 f4 2a bd
       -0.08105456 -0.0721029 -0.94040626 -0.04173698
000010 9f 37 bb bd ca ce 02 be b5 e5 01 3f 98 6c a3 bd
       -0.09141468 -0.12774196 0.5074113 -0.07979697
000020 98 f4 c8 3b 48 8a 4b be 63 a9 ec bd 81 2b 25 be
       0.0061326735 -0.19876969 -0.115557455 -0.16129877
000030 4d b0 d3 bf 6e 75 6f be 85 52 e5 bd 3b 8e 15 be
       -1.6538178 -0.2338464 -0.1119738 -0.14605038
000040 a2 e1 da 3f 47 d7 68 be fb 8c de 3c 29 13 70 3d
       1.7100108 -0.22738372 0.027166834 0.058612023
000050 b4 8c c5 bd 9a 50 26 be 82 ba 07 bd 81 1e 8c 3f
       -0.096459776 -0.16241685 -0.033136852 1.0946809
000060 be 0a 1c be 1e 06 a7 be 04 3d 04 be 54 1d 94 3d
       -0.15238473 -0.32621855 -0.129139 0.072321564
000070 4f 13 83 be 36 52 30 be f7 8c d1 bd 69 77 44 be
       -0.2560067 -0.17218861 -0.10231965 -0.19186176
000080 5c 7f 6a be af 2f cf bd bd f2 38 bf f0 2f 53 be
       -0.22900146 -0.10116517 -0.7224539 -0.20623755
000090 c0 cc 58 be 5a 28 23 be bd 3b 7b be d6 1e 52 be
       -0.21171856 -0.15933362 -0.24534507 -0.20519575
0000a0 fd d7 72 be e8 91 13 be 42 ac 22 3c dc 0d 32 be
       -0.23715205 -0.14411128 0.009928765 -0.173881
0000b0 c2 a0 18 be aa 45 8b bd cd e2 c2 bd c2 28 90 bd
       -0.14905074 -0.06800397 -0.09515915 -0.07039024
0000c0 63 d1 8b bd df 92 15 3f d0 d8 a9 bd 53 03 42 be
       -0.06827047 0.5842723 -0.08293307 -0.1894658
0000d0 38 15 47 bc 42 ec 41 3f fb 10 07 be 6f 6b a1 bf
       -0.012151055 0.75751126 -0.13190071 -1.2610911
0000e0 ec 2c 0c be 74 d8 da bd 53 23 3f be 6c 1d 2b be
       -0.13689011 -0.106858164 -0.18665819 -0.16710442
0000f0 79 f2 46 be 32 1c 29 be 9c 8d 12 be a6 1e a3 bd
       -0.19428433 -0.16514662 -0.14311832 -0.0796483
000100 38 2a 8e bd e1 6d 8a bd ae 12 7a be 25 1d 6d be
       -0.06941646 -0.06759239 -0.24421188 -0.23155649
000110 63 69 64 be 9c a4 8d be 43 79 08 3f e8 51 25 be
       -0.22305827 -0.2766465 0.5331003 -0.16144526
000120 1f 02 fa bd 48 77 61 3d 54 23 fc 3c 2f 26 97 3e
       -0.12207436 0.055045396 0.030778565 0.2952132
000130 ba 4e 04 3e 2a b1 e8 bd ca e9 45 bc 83 56 da bc
       0.12920657 -0.11361916 -0.012079665 -0.02665258
000140 0a f8 7a be a0 7c 16 be d5 b1 4b 3d e5 36 49 be
       -0.24508682 -0.14695978 0.04973014 -0.19649847
000150 74 74 82 3f 54 17 36 be 98 9b 7c 3e d1 4c 0b be
       1.0191789 -0.17782336 0.2466873 -0.13603522
000160 21 c1 ca bd 4a bf 36 be 76 09 d1 bd 14 71 d3 3e
       -0.09900118 -0.17846408 -0.10206883 0.4129721
000170 40 82 85 bd ae 7f 0a be 9f 56 60 be 4e 92 06 3d
       -0.06518984 -0.13525268 -0.21908043 0.03285437
000180 6c b3 f4 3b 46 62 16 be b7 37 2f 3f 80 89 02 3e
       0.007467678 -0.14685926 0.6844439 0.12747765
000190 9b aa 44 be 58 2e 97 bc 3a f7 c1 bc 60 7f 18 3c
       -0.19205706 -0.018454716 -0.023677457 0.009307712
0001a0 4a 46 04 be 1e 03 ab be 50 f0 74 bb 18 26 86 be
       -0.12917438 -0.33400816 -0.0037374683 -0.26200938
0001b0 a3 97 1e bd a5 28 66 be aa 27 4e bb a6 67 bf be
       -0.03871883 -0.22476442 -0.0031456747 -0.37383765
0001c0 d8 c3 b6 bd d3 af 9f bd 3c ce 01 3f c8 39 22 be
       -0.08924073 -0.07797208 0.50705314 -0.15842354
0001d0 5a 40 1b be 81 8e 8f bd 55 92 1e be e9 73 e6 3e
       -0.15161267 -0.07009602 -0.15485509 0.45010307
0001e0 e3 bb 19 be e3 a0 1a be af 31 bd 3e e1 a1 c6 bd
       -0.1501308 -0.15100436 0.36951968 -0.09698845
0001f0 4e 6d 87 bd 59 c2 9a 3c 2a 63 0b bf 7c e6 07 3d
       -0.06612645 0.0188915 -0.5444819 0.03317879

model/activation_16/Relu;model/batch_normalization_16/FusedBatchNormV3;model/conv2d_8/BiasAdd/ReadVariableOp/resource;model/conv2d_8/BiasAdd;model/depthwise_conv2d_11/depthwise;model/conv2d_8/Conv2D f4 [128]
000000 25 ea 5d 3d 8f f0 47 bd 6b 19 1c be 27 ef ae 3c
       0.054178376 -0.0488134 -0.15244071 0.021354271
000010 f6 0d 2b be 50 38 c3 bc c0 ff 08 be 75 09 69 3e
       -0.16704544 -0.023830563 -0.13378811 0.22757514
000020 72 24 5a be 87 19 b4 be e9 85 9a bd fe 29 5f be
       -0.21302965 -0.35175726 -0.075450726 -0.21793362
000030 02 cc a0 bd 3a 94 3a 3d bc 86 5e bf 14 f6 cc 3e
       -0.078514114 0.045551516 -0.8692434 0.40031493
000040 b6 d0 22 3f bc 8d 0e bd 6b 60 da bd c8 f6 d2 bd
       0.6359972 -0.034803137 -0.106629215 -0.10300976
000050 21 89 40 be be c1 87 be 4a d5 8a bd 2c 9d a7 be
       -0.1880231 -0.26515 -0.06778963 -0.327371
000060 aa 1b 72 be 96 35 19 be a3 0c ff bd 72 35 3b be
       -0.23643366 -0.14961848 -0.12453582 -0.18282107
000070 2e 1f 71 be d0 79 52 be 2a 32 4c be e3 f5 00 3f
       -0.2354705 -0.2055428 -0.19941011 0.50375193
000080 d7 f5 26 be 28 96 35 be 37 6b 96 3f e4 ee b7 be
       -0.16304718 -0.17733061 1.1751469 -0.35924447
000090 96 eb 0e be 91 b4 18 be 4a 79 f4 be 39 2e a8 be
       -0.13957056 -0.1491263 -0.47748786 -0.32847765
0000a0 54 85 06 bc 3c fa ec 3b 90 a5 85 bc 54 c8 44 be
       -0.008210499 0.0072319787 -0.016314298 -0.19217044
0000b0 42 06 07 bd 64 5c 0c be 96 16 7d bd c8 65 70 3c
       -0.032964952 -0.13707119 -0.061789118 0.014672704
0000c0 0f 44 3f 3f f3 1c bd bd 71 bf 56 3f c7 d6 28 bc
       0.74713224 -0.09234037 0.83885866 -0.010305113
0000d0 8c 64 45 be 21 c9 e8 bd 80 b0 b9 be a1 d8 47 be
       -0.19276637 -0.11366487 -0.3626747 -0.19516231
0000e0 97 43 b6 3c 39 ae c2 bd 77 7e 18 bd 74 b3 9d bd
       0.022249026 -0.095058866 -0.03722998 -0.077002436
0000f0 6c 5e 63 3e 3f 86 28 be 5c 21 23 bc 72 4a f6 bd
       0.22203988 -0.16457461 -0.009956684 -0.12025918
000100 b9 0e fd bd 86 5d 41 be 7d 09 ff bd 39 e4 1c 3f
       -0.12356324 -0.18883333 -0.124529816 0.6128574
000110 c5 18 2b be e2 81 35 3c 5e 5a 14 bd db 74 c4 3e
       -0.16708668 0.01107833 -0.036218993 0.38370404
000120 be e6 3c be 26 94 74 be b3 29 b4 be e1 b7 a6 be
       -0.18447396 -0.23884639 -0.35188064 -0.32562163
000130 e3 ea 85 be 2c 6f 0e be 03 62 48 3f 86 c5 20 bd
       -0.26155767 -0.13909596 0.78274554 -0.039250873
000140 ee 05 d0 be b7 aa c1 3f 14 33 c5 bd b4 bf bd be
       -0.40629524 1.5130223 -0.09628883 -0.3706032
000150 9a 2c 95 be 0e 76 c8 3e 15 04 a1 be eb 6c c1 be
       -0.2913559 0.3915257 -0.31448427 -0.3777841
000160 95 c9 29 bf 2e 43 87 bd ca c4 c3 be 4e 5a 86 be
       -0.66323215 -0.066046104 -0.38236076 -0.26240772
000170 35 47 a2 bc 57 d0 14 be 3e 24 a9 bd 32 1e 80 3d
       -0.019809345 -0.145326 -0.08258866 0.06255759
000180 af 9f 9f be 7a 48 77 3d 50 11 e9 3d 53 59 a9 bc
       -0.31176516 0.060371853 0.11380255 -0.020672476
000190 3f 43 fd 3e 6c 36 13 bf d2 ef a1 3d ea 81 7e 3c
       0.49465367 -0.57504916 0.0790707 0.015533904
0001a0 94 fc e0 bd c6 f4 34 be e8 7d ad be 51 1f 26 3e
       -0.109856755 -0.17671499 -0.3388512 0.16222884
0001b0 28 32 8f 3e 06 02 a9 be ac ae c9 bd 5f bd 95 be
       0.27967954 -0.33009356 -0.09847769 -0.2924604
0001c0 c7 51 a6 bc 48 2b 0f be d7 a4 b6 3f db 36 97 3f
       -0.020302666 -0.13981354 1.4269055 1.1813616
0001d0 b6 54 d6 3c 4c 6a 5c be a7 65 71 be c1 8c af bf
       0.02616344 -0.21524924 -0.23573934 -1.371483
0001e0 ce 36 c7 bc cc fb 7a be 7e 83 92 bd e1 4b 22 be
       -0.024318125 -0.24510115 -0.071539864 -0.15849258
0001f0 c7 22 49 bc 8f 82 88 be 12 4e ad 3f 4d 31 04 3f
       -0.012276358 -0.26662108 1.353945 0.5163773

model/batch_normalization_3/FusedBatchNormV3;model/depthwise_conv2d_1/depthwise;model/depthwise_conv2d_1/BiasAdd;model/depthwise_conv2d_1/BiasAdd/ReadVariableOp/resource f4 [16, 1, 3, 3]
000000 a3 bf e5 bc 5f b5 84 bd 55 19 5c 3d 77 e4 0c 3e
       -0.028045481 -0.06479906 0.053735096 0.13759027
000010 11 64 33 3e 8b 1a 85 3c bf dd 93 3e 2c 96 b4 3e
       0.17518641 0.016248008 0.28880116 0.35270822
000020 d9 d0 55 3d be f6 82 3d c8 4e 0d 3d 4d 87 47 be
       0.052201126 0.063947186 0.03449896 -0.19485207
000030 14 3f 75 be ef 32 b6 be a4 92 11 be 10 89 5e be
       -0.23949844 -0.35585734 -0.14216095 -0.21731973
000040 29 11 d7 be 59 b1 ff 3c 97 ef fb 3b 79 3c f6 bb
       -0.4200528 0.031212496 0.0076884734 -0.007514533
000050 dc b6 6c bc 0e a4 a3 bd c3 7f 39 bf c3 80 cc be
       -0.014447894 -0.07990275 -0.72460574 -0.39941987
000060 1d 21 dc 3d 6d 1f c1 be 44 46 9b be 18 c4 55 be
       0.10748503 -0.37719288 -0.30327046 -0.20875585
000070 77 f7 68 3f cd 6e 29 3f 87 84 d0 3d 1b 9c f3 3e
       0.910026 0.66184694 0.101815276 0.47580037
000080 0f db d6 3e ee c8 41 39 fe 47 18 bf 73 75 5e be
       0.41964003 0.00018480766 -0.5948485 -0.21724491
000090 d5 d6 d9 bf 03 1d 48 bf b6 3a f2 3d da de 82 bf
       -1.7018687 -0.7816927 0.118276045 -1.0224259
0000a0 72 50 26 be a1 4b 77 3e dc 24 8f 3e 90 75 7a 3e
       -0.16241625 0.24149944 0.2795781 0.24458909
0000b0 37 b8 8d 3e 66 ac b3 bf 0f 8a ce 3e 34 24 5c 3e
       0.27679607 -1.4036987 0.40339705 0.21498185
0000c0 0e 0e 64 3f 78 e5 9b bf ab 35 a8 3e e0 a3 35 3f
       0.89083946 -1.2179403 0.32853445 0.7095318
0000d0 c4 26 6c 3e b0 da 15 bf f0 88 8c bd ed 50 3d 3e
       0.23061663 -0.58536816 -0.06862056 0.18487902
0000e0 b0 ee 13 3e 4a 82 b1 3e 70 cb dd 3e 79 a4 aa 3d
       0.14446521 0.34669715 0.43319273 0.08332152
0000f0 22 b5 f9 3e b3 1a c0 3e 6e 77 a7 3d d1 0d 9f be
       0.48771006 0.3752037 0.08177076 -0.3106523
000100 b5 1c e1 be 67 92 95 be aa 89 c9 be 31 1c 20 bf
       -0.43967214 -0.2921326 -0.39362842 -0.62543017
000110 c2 fa 91 be f2 cd b3 bc b2 9e 4a be 8d fb 7b bd
       -0.28511626 -0.021948788 -0.197871 -0.061519194
000120 c6 09 95 be 3e 8e 76 bf ea a5 81 3f c4 81 40 bf
       -0.2910902 -0.96310794 1.0128758 -0.75198007
000130 db 80 ca be 28 89 51 3f 0b 5d 83 bf a7 e5 8d 3f
       -0.39551434 0.8184991 -1.026277 1.1085709
000140 ce e9 1b 3f 4e ec 4b be 2a 42 a9 3d d6 58 55 3e
       0.6090363 -0.19914362 0.08264573 0.2083467
000150 99 b3 8c 3e 38 b9 4d 3f bc fa 21 3f 29 21 de 3e
       0.27480772 0.80360746 0.63273215 0.43384674
000160 ab fb 37 3f 21 f1 fd 3d 1b 37 47 bf 5f 53 08 40
       0.7186839 0.12399507 -0.7781846 2.1300886
000170 7d 6f 8a bf e0 06 a5 3d 58 98 83 bf 3c d3 98 3f
       -1.0815274 0.08057952 -1.0280867 1.1939464
000180 22 b4 6c 3e 22 2e 4e bf 22 c1 75 3e 52 c2 5d be
       0.2311559 -0.80539143 0.23999456 -0.21656159
000190 69 e1 79 be b2 7d c1 bd cc a6 b5 be 09 86 6f bf
       -0.24402393 -0.094478026 -0.35478818 -0.93563896
0001a0 9f 39 90 be e7 5e 93 be 2c 75 f8 be d9 1c b9 be
       -0.2816896 -0.28783342 -0.48526895 -0.36154822
0001b0 ee 65 15 3d 55 03 ee 3d 49 ae aa 3d e6 43 b6 3e
       0.03647416 0.11621729 0.083340235 0.35598677
0001c0 7e 71 c5 3e b4 71 38 3e 68 48 bc 3e cb d6 98 3e
       0.3856315 0.18012124 0.36773992 0.29851374
0001d0 63 ec 29 3c 23 87 1e 3e 46 41 38 3e 4c b2 97 bc
       0.0103713 0.15481238 0.1799365 -0.018517636
0001e0 be ad 3f 3f 36 c8 57 3f bc dc 35 3e e8 08 0f 3f
       0.74874485 0.8428987 0.17759985 0.55872965
0001f0 18 3c 20 3f 4a 28 0b 3e 1d 76 11 be b3 fb c2 be
       0.62591696 0.13589588 -0.14205213 -0.38082656
000200 4d 0e 3a be 82 5d 27 be 5b 43 ce be 81 6e 9d be
       -0.18169518 -0.16344264 -0.40285763 -0.3074837
000210 7d 12 e3 bd 82 cb 8c be 6a 53 87 be b3 0f f9 be
       -0.11087511 -0.27499014 -0.26430827 -0.4864479
000220 03 ef a8 be 9b 1b ab bc e9 b5 ff be 1e ec ba bd
       -0.3299485 -0.020887187 -0.49943474 -0.09127067
000230 16 34 d0 3d b2 25 1e be f2 45 df 3c f6 ac 55 3e
       0.101661846 -0.15444067 0.027255032 0.2086676

model/activation_3/Relu;model/batch_normalization_3/FusedBatchNormV3;model/depthwise_conv2d_1/depthwise;model/depthwise_conv2d_1/BiasAdd;model/depthwise_conv2d_1/BiasAdd/ReadVariableOp/resource f4 [16]
000000 08 e5 22 be ef a4 a5 3f 8b ed fa 3f 98 2e 36 3d
       -0.15907681 1.2940959 1.9603742 0.04447803
000010 50 6c 4d 40 ff ce 87 3e 00 b6 5f 3d 6d 5e ed 3f
       3.2097359 0.26525113 0.054616928 1.8544441
000020 ce 4b 8e 3f 6a 39 b3 bf cc 92 31 be 89 96 5f 40
       1.1116884 -1.4001896 -0.17341155 3.493563
000030 02 a2 32 bf 91 e7 57 bf 08 6c 90 3f 72 8f c3 3f
       -0.69778454 -0.8433772 1.1282969 1.5278151

model/activation_4/Relu;model/batch_normalization_4/FusedBatchNormV3;model/conv2d_2/BiasAdd/ReadVariableOp/resource;model/conv2d_2/BiasAdd;model/depthwise_conv2d_3/depthwise;model/conv2d_2/Conv2D f4 [32]
000000 81 80 87 be 20 d9 46 3f af 09 5e bf 5e 89 5a bf
       -0.26465228 0.77675056 -0.86733526 -0.85365856
000010 d8 02 0d 3f 4b d8 8c 3e de a5 b1 bd 7a 55 d4 bf
       0.55082464 0.27508768 -0.08674215 -1.6588585
000020 43 fc c7 3f 42 06 7d 3e 48 1c c9 be f8 0a ae bc
       1.5623859 0.24709418 -0.3927939 -0.021245465
000030 1e e5 35 c0 bc a8 21 bd 74 11 00 bf 49 0a b9 3e
       -2.8421092 -0.03946756 -0.5002663 0.3614066
000040 77 d6 5d bf 45 42 8f bd 53 d8 a0 bf 52 bd 1f be
       -0.8665537 -0.06995062 -1.2566017 -0.15599564
000050 52 ad ba 3e 12 6e 6e 3f 76 1c d1 3c e0 a3 3d 3f
       0.36460358 0.93136704 0.025526267 0.7407818
000060 40 ac d5 bf 2c 0f b2 3e 52 9f 2e c0 bd b8 1f 3f
       -1.6693192 0.347772 -2.7284741 0.62391263
000070 b6 59 bf be 91 7f 7f bf 7d 51 d6 3d e9 3c 77 bf
       -0.37373132 -0.99804026 0.104647614 -0.96577317

model/batch_normalization_1/FusedBatchNormV3;model/depthwise_conv2d/depthwise;model/depthwise_conv2d/BiasAdd;model/depthwise_conv2d/BiasAdd/ReadVariableOp/resource f4 [8, 1, 3, 3]
000000 bd d5 45 bf ba 59 62 bd fc 8c 4c bf ca 46 90 3f
       -0.77279264 -0.05526135 -0.79902625 1.1271603
000010 05 a5 a9 3f 0e 42 d5 3e 14 e0 e2 3e 3d 1c ed 3e
       1.3253485 0.41651958 0.44311583 0.46310607
000020 94 cf 71 bf b4 5b d4 bf 46 27 b9 3d ab ca c8 bd
       -0.94457364 -1.6590486 0.09040694 -0.09804281
000030 aa a0 91 3f ca 2e 24 3f 7f ce ca be 5e ad ed 3f
       1.1377156 0.64133894 -0.3961067 1.8568532
000040 66 50 76 3f fd 94 c2 bf cb 09 05 bf 77 70 5d be
       0.9621643 -1.5201718 -0.5196807 -0.21624933
000050 a2 76 a3 bd d6 b9 ea 3d 02 e5 0b 3f d0 50 3d be
       -0.07981612 0.11461227 0.54646313 -0.18487859
000060 a9 2c 6e 3f c6 cf 03 3f 97 83 d5 bb 4e 01 04 bf
       0.93036896 0.5148891 -0.006515931 -0.5156449
000070 b5 de af be fd 56 6e bd 9e 00 aa 3e 18 1a a4 bc
       -0.343496 -0.058188427 0.33203596 -0.020031974
000080 5c 3b 59 bd 30 61 94 bc 03 5c 1d 40 ed dc 62 bf
       -0.053035125 -0.018112749 2.458741 -0.88618356
000090 2d a5 15 bf 7b 0e 18 bf 75 65 bf 3e 6d b9 42 3f
       -0.58455163 -0.59397095 0.37382093 0.7606419
0000a0 24 40 fb 3e 0b 1d 69 bf 9f a4 3c 3f 77 11 f0 3f
       0.49072373 -0.9105994 0.7368869 1.875533
0000b0 5c 2f 88 bf e5 24 4c c0 cd b5 4b 40 c7 ec 2e 40
       -1.0639453 -3.1897519 3.1829712 2.7332017
0000c0 b8 dd a7 3f d1 91 e3 c0 61 09 ab 3f 17 76 70 3f
       1.3114538 -7.11155 1.3362237 0.9393019
0000d0 ff 92 33 40 20 3e 93 c0 61 d5 d0 3f 31 36 cc 3c
       2.805847 -4.6013336 1.6315118 0.024928184
0000e0 c4 63 73 3f 7f 89 03 c0 83 d5 22 c0 69 0f 82 3e
       0.95074105 -2.055267 -2.5442817 0.25402382
0000f0 7c 2f 2f 3f 2f ac b9 bf 60 7d bf 3f 28 23 3c 3f
       0.6843183 -1.4505671 1.4960136 0.73491144
000100 84 54 63 3f 50 86 ea be e6 6a 7a be 1a e8 11 c0
       0.88800836 -0.45805597 -0.24454841 -2.2797914
000110 14 14 30 3f bd ff a7 bf ee 18 91 bf 3d 53 8a 3f
       0.68780637 -1.312492 -1.1335733 1.0806652

model/activation_14/Relu;model/batch_normalization_14/FusedBatchNormV3;model/conv2d_7/BiasAdd/ReadVariableOp/resource;model/conv2d_7/BiasAdd;model/depthwise_conv2d_11/depthwise;model/conv2d_7/Conv2D f4 [128]
000000 99 bb 95 bd 81 c2 ee be 24 e0 d1 3e f0 e7 35 3f
       -0.07311172 -0.4663277 0.40991318 0.71057034
000010 3c 17 d3 be 30 67 c0 bb 59 8a 12 3f 25 5a a0 bf
       -0.41228664 -0.005871676 0.5724235 -1.252751
000020 8a 28 8a 3f 8f a1 a7 3e 48 6f f2 bd 09 a4 73 3d
       1.0793622 0.32740447 -0.118376315 0.059482608
000030 40 6a e5 bd 9a e7 54 be 8b 55 83 be af c4 5d bf
       -0.11201906 -0.20791474 -0.25651202 -0.8662824
000040 0e 97 aa bf d2 9f 7a bc 7d 50 ad bd b4 52 7d bf
       -1.3327348 -0.015296893 -0.084626175 -0.9895432
000050 1e 83 1b be 49 67 91 3f 1e 5b eb bd fd c0 38 be
       -0.15186736 1.1359645 -0.114919886 -0.18042369
000060 e0 9d 30 3a c9 8b 68 3f 80 9e 8a bd 2b 1d 2f bd
       0.00067373924 0.90838295 -0.06768513 -0.042752426
000070 48 98 85 3c f1 fb 09 be 4e 1e 3b 3f 76 eb 1f c0
       0.016307965 -0.13475014 0.73093116 -2.4987464
000080 9f 73 d2 be 54 99 c0 3e 48 24 a7 3d 28 f5 9c bf
       -0.41103837 0.3761698 0.08161217 -1.2262316
000090 bb 4d 41 bd 98 9b 11 c0 1b 2e 9b be 87 6e 5b 3f
       -0.04719327 -2.2751217 -0.30308613 0.85715526
0000a0 0c 3d bf bc 84 37 86 3f cb 95 f7 bd 7d 0a 34 3f
       -0.02334454 1.0485692 -0.120891176 0.70328504
0000b0 26 1f c6 3d 22 b1 ad be db bc 15 bf d8 52 38 be
       0.0967391 -0.33924204 -0.58491296 -0.18000352
0000c0 ce 64 5c bf 84 f2 2a 3c 69 3e 2b 3f ea cf 53 be
       -0.86091316 0.010433797 0.66892105 -0.20684782
0000d0 d8 7e e9 bc 72 f8 7f 3e 3b a9 8d bd 2a 6e 7f be
       -0.028502867 0.24997118 -0.06917044 -0.24944368
0000e0 78 dc 1e be d5 b7 3d be 35 bb 93 3c 08 d1 17 3e
       -0.1551379 -0.18527158 0.018033603 0.14825833
0000f0 28 04 84 bf f3 8a 8c 3d 48 fd a9 3e c8 a0 16 3d
       -1.0313768 0.0686244 0.3320105 0.036774427
000100 d3 17 ba 3e 97 87 ba 3d e2 fd b4 bf 30 9c 7e 3f
       0.363463 0.09107893 -1.4139979 0.99457073
000110 81 07 94 bf 45 4e 79 bd b2 f6 d4 3e 89 d3 50 be
       -1.156479 -0.06086566 0.41594464 -0.20393194
000120 98 fa 59 be b5 67 f5 3d 1a 1e 9a bd fe 9d 8d bd
       -0.21287 0.11982671 -0.07525273 -0.069149
000130 20 e6 ab 3d 94 4c f6 bd bf 25 45 3f f2 b7 52 bc
       0.08393502 -0.12026325 0.7701072 -0.012861239
000140 83 35 2b 3f 7a 87 40 3c b5 9a 7d be 4c 0a e5 3c
       0.6687853 0.01175105 -0.24766047 0.027959011
000150 9c 7e 4a 3e 54 f1 1d 3d be c7 10 be 30 d5 56 bd
       0.1977486 0.038560227 -0.14138696 -0.052449405
000160 5c 3a 74 be 68 51 0c be 8b 9b b9 bd 17 c0 07 be
       -0.23850387 -0.13702929 -0.090628706 -0.1325687
000170 c5 cd 4c be 22 85 b5 bf 8d 41 63 bf 37 07 ef bd
       -0.2000037 -1.4181254 -0.887719 -0.11671298
000180 6f 32 52 3f ad 8c a1 3e 0a a3 74 3d 22 a8 57 bd
       0.82108206 0.3155264 0.0597258 -0.05265058
000190 d6 2c 29 3f 07 e4 17 3f 6a 2d d6 3d 8c 8f ae 3f
       0.6608404 0.5933232 0.10457881 1.3637557
0001a0 51 24 be bd 4c bd 5d 3f 96 fc c1 bd f4 7c d3 3d
       -0.092842706 0.8661697 -0.09472005 0.10326567
0001b0 f0 e6 5e bd 16 07 04 bd ce ce 8b bd 3d 4f dc bc
       -0.054419458 -0.03223332 -0.06826554 -0.026893253
0001c0 d8 29 37 bd cb 4f 13 be 87 da 6f be a0 16 ca 3c
       -0.04471764 -0.14385907 -0.23423205 0.024668992
0001d0 dd 48 e1 3e f4 51 0b 3d 50 48 ce bc 70 d3 9a 3d
       0.44000903 0.034013703 -0.025180966 0.0755986
0001e0 1c 4b a5 bd c6 7b 88 be 82 f0 88 3d f9 87 67 bf
       -0.080709666 -0.26656932 0.06686498 -0.9044185
0001f0 63 70 68 bf fe 56 c8 bd 7f 4b 55 be a0 b2 1e 3e
       -0.9079649 -0.097822174 -0.2082958 0.15497828
