zigzag-imc/workload_preprocessing/tensorflow_to_onnx/mlperf_tiny/mobilenet_v1/vww_96_float.onnx (onnx, 913530 bytes, 56 tensors)

model/activation_17/Relu;model/batch_normalization_17/FusedBatchNormV3;model/depthwise_conv2d_8/depthwise;model/depthwise_conv2d_8/BiasAdd;model/depthwise_conv2d_11/depthwise;model/depthwise_conv2d_8/BiasAdd/ReadVariableOp/resource f4 [128]
0.031471714 -0.43057275 -0.390889 -0.2133989 -0.46936762 -0.4428363 -0.40328652 -0.528582
-0.33120748 -0.34171864 -0.57673806 -0.40454277 -0.41933757 -0.009426594 -0.93819356 0.3449109
-0.5194539 -0.3801133 -0.40624467 -0.35472673 -0.3780226 -0.44921792 -0.3166292 -0.30653733
-0.45137763 -0.36309454 -0.32358968 -0.21294482 -0.4740098 -0.3874524 -0.5121301 -1.0804359
-0.42444408 -0.37803474 -0.10424669 -0.30568612 -0.41120696 -0.40385973 -0.33601946 -0.39520153
-0.6692326 -0.23890963 -0.45365435 -0.4031199 -0.37062824 -0.3915627 -0.39987037 -0.13561249
-1.1529366 -0.00955319 0.9990905 -0.3556283 -0.35265422 -0.42037684 -0.49247545 -0.45482314
-0.19736451 -0.3984766 -0.45706847 -0.43763226 -0.11308214 -0.33625096 -0.4136786 -0.383357
-0.37211046 -0.36098424 -0.5310064 -0.80243176 -0.38573545 -0.3280098 -0.34439856 -1.0548806
-0.33527154 -0.31139326 -0.29818773 -0.3840648 -0.32209232 -0.35669073 0.98919636 -0.4859429
-0.327148 -1.1881458 -0.42961347 -0.8274139 -0.41933638 -0.011416155 0.10354402 -0.953217
-0.3253653 -0.4093678 -1.3314363 -0.32110086 -0.9659103 -0.38020673 -0.3103633 0.0032898113
-0.3664304 -0.16394126 -0.61532974 -0.4554703 -0.3984021 0.7536415 0.12419785 -0.18736365
-0.36224428 -0.38149294 -0.43039492 0.5495623 -0.5006436 -0.8279754 -0.4501532 -0.37112206
-0.45053947 -0.32502443 -1.4345242 0.07601704 -0.15753525 -0.365587 -0.39615414 -0.3518503
-0.48290437 -0.3506825 -0.40151668 -0.4474059 -0.40428993 -0.31072634 -1.3861607 -0.989378
00000000: 7ce8 003d 0874 dcbe 9a22 c8be 3e85 5abe
00000010: f450 f0be 71bb e2be 927b cebe 2651 07bf
00000020: 0794 a9be bff5 aebe 1ba5 13bf 3b20 cfbe
00000030: 6ab3 d6be 0072 1abc 742d 70bf 2998 b03e
00000040: eefa 04bf 369e c2be 4dff cfbe be9e b5be
00000050: 2e8c c1be e4ff e5be 391d a2be 76f2 9cbe
00000060: f81a e7be 87e7 b9be 8cad a5be 350e 5abe
00000070: 6ab1 f2be 2960 c6be f51a 03bf b94b 8abf
00000080: bc50 d9be c58d c1be 4a7f d5bd e482 9cbe
00000090: b889 d2be b4c6 cebe be0a acbe db57 cabe
000000a0: d452 2bbf baa4 74be 6245 e8be bb65 cebe
000000b0: fcc2 bdbe e87a c8be cfbb ccbe 00de 0abe
000000c0: 6d93 93bf fc84 1cbc 65c4 7f3f ea14 b6be
000000d0: 188f b4be a23b d7be be25 fcbe 94de e8be
000000e0: ec19 4abe 2005 ccbe e104 eabe 5611 e0be
000000f0: 9c97 e7bd 1629 acbe aecd d3be 5e47 c4be
00000100: 4385 bebe edd2 b8be 09f0 07bf 2b6c 4dbf
00000110: 1e7f c5be e7f0 a7be 0255 b0be 5406 87bf
00000120: b6a8 abbe f06e 9fbe 10ac 98be 24a4 c4be
00000130: 49e9 a4be 2ba0 b6be f93b 7d3f 82cd f8be
00000140: f17f a7be 2915 98bf 4cf6 dbbe 66d1 53bf
00000150: 42b3 d6be d30a 3bbc e30e d43d 0806 74bf
00000160: 4896 a6be a898 d1be 816c aabf 5567 a4be
00000170: e645 77bf 75aa c2be f0e7 9ebe e099 573b
00000180: c49c bbbe 38e0 27be 4086 1dbf 6733 e9be
00000190: 5cfb cbbe a6ee 403f 715b fe3d 42dc 3fbe
000001a0: 1578 b9be 0b53 c3be b95c dcbe 1db0 0c3f
000001b0: 2e2a 00bf 32f6 53bf 7b7a e6be b603 bebe
000001c0: 1cad e6be 9a69 a6be 7d9e b7bf d2ae 9b3d
000001d0: ec50 21be 382e bbbe b7d4 cabe b925 b4be
000001e0: 3e3f f7be a88c b3be 9893 cdbe 6312 e5be
000001f0: 17ff cebe 8617 9fbe b76d b1bf e047 7dbf

model/dense/MatMul f4 [2, 256]
0.07171417 -0.008493722 -0.013603575 0.05396858 -0.046465393 0.059188757 -0.049303785 -0.12597547
0.02890261 0.13642383 -0.021043543 0.10997797 -0.022475973 0.30362856 0.0617711 0.036909014
0.064735204 0.10602308 0.024370972 -0.077021755 0.055407815 0.022880549 0.10890186 0.060379427
0.052142464 0.018844275 0.007952422 0.035041265 0.046473503 0.0011840506 -0.09859945 -0.115376644
-0.09335528 -0.059682753 0.36297882 -0.061572533 -0.035506386 0.31049892 -0.105082445 -0.0003546181
0.00534384 -0.0055150664 0.033670194 0.32299933 0.073574 0.057346962 -0.12634757 -0.1113005
0.094842084 0.047136486 0.30485207 -0.020268416 -0.017200641 0.04551462 -0.043656975 0.010159557
-0.587254 -0.059775427 -0.016400443 0.033312503 0.09370162 0.03858457 0.009019609 -0.12186328
-0.07170733 0.011891659 0.062657565 0.1308031 -0.046380263 0.120137066 -0.008833493 0.070571125
-0.10039994 -0.52390176 0.043345857 0.04731548 -0.016407523 -0.032039355 0.01731296 -0.12603483
-0.09763528 0.00428047 -0.071366824 -0.0385753 -0.065434195 -0.038167406 0.039976347 0.26035875
0.12084761 0.05996499 -0.004812806 -0.1472492 0.10077328 -0.07507328 0.041573808 -0.4526014
-0.015410299 -0.04703676 0.05535564 0.20237355 0.0111470865 -0.102081455 -0.021331115 -0.025887882
-0.050516106 -0.014397277 -0.024219802 0.0086236615 -0.035058316 0.036342192 -0.03962075 0.031536
-0.013171875 -0.024987983 0.11272607 -0.07847818 -0.14105819 -0.083138846 -0.09905905 0.04410188
0.026845785 0.032928593 -0.06747397 -0.036531072 0.06891878 0.0021403322 0.112667896 0.046800572
0.06176033 -0.0084523875 -0.089960985 0.010544106 -0.07445577 -0.102193505 0.023044573 0.0005486833
-0.004435074 0.074216254 -0.044354107 -0.0627238 -0.10716892 0.042412493 -0.05757998 -0.36132747
-0.041738115 -0.016241029 -0.023103924 -0.01472145 0.049334776 0.25396577 0.06070146 0.021064484
0.13689941 -0.10494731 0.07666078 0.0031718682 0.095393345 0.016564323 0.04992486 0.024385197
0.061368924 -0.005160079 0.09320602 0.0023350897 0.017848125 -0.028218398 0.042924266 0.03629366
0.02018823 -0.024802033 0.046853498 0.07168169 0.01479975 -0.018395094 -0.088025704 -0.010158231
-0.037944146 -0.25258887 -0.08643753 0.03946053 0.024635967 0.018317347 -0.07938287 -0.03864034
0.030823588 0.041346435 0.05194 -0.045335483 -0.092134625 0.29505053 -0.07483662 0.00985911
-0.06901056 0.041821126 0.056385238 0.076204084 -0.12716837 -0.056605976 0.054230705 0.03901011
-0.3468608 -0.35150298 0.023392363 0.006830769 0.035049625 0.05078518 0.025140444 -0.22106005
-0.0060249195 0.016445383 -0.043024514 0.088516 0.043976743 0.03012511 0.25939372 0.11018883
0.083016895 -0.057514865 0.12586878 0.021034297 0.06449586 0.10009419 0.41824904 -0.061936457
0.06755447 0.109386824 -0.057980325 -0.004064953 -0.044745784 0.08391115 -0.08997463 -0.04870197
0.02250268 -0.050565194 0.009055667 0.005513471 0.00073575595 0.014802092 -0.054016083 -0.40716898
0.019193485 0.02691354 -0.12801749 0.13639516 -0.015394026 0.08433353 -0.03634248 0.054947525
-0.09516249 -0.1676555 -0.01440082 0.052246157 -0.11430258 0.21308787 0.13631345 -0.051024154
00000000: e1de 923d 4129 0bbc 87e1 5ebc 280e 5d3d
00000010: 7f52 3ebd e96f 723d c4f2 49bd b7ff 00be
00000020: 2bc5 ec3c b0b2 0b3e 8263 acbc 213c e13d
00000030: 881f b8bc 3475 9b3e b103 7d3d e82d 173d
00000040: e493 843d a122 d93d a2a5 c73c 95bd 9dbd
00000050: 4ef3 623d fd6f bb3c f007 df3d 6b50 773d
00000060: 5693 553d 4f5f 9a3c e04a 023c 6e87 0f3d
00000070: 005b 3e3d 2532 9b3a 82ee c9bd 974a ecbd
00000080: 0e31 bfbd e775 74bd 5cd8 b93e 7b33 7cbd
00000090: 256f 11bd b7f9 9e3e 7735 d7bd 09ec b9b9
000000a0: 611b af3b bbb7 b4bb c2e9 093d 2b60 a53e
000000b0: f7ad 963d a6e4 6a3d 4261 01be 84f1 e3bd
000000c0: 913c c23d 3012 413d 9215 9c3e f309 a6bc
000000d0: 5ce8 8cbc 8a6d 3a3d a8d1 32bd 4574 263c
000000e0: 4756 16bf 14d7 74bd 395a 86bc b172 083d
000000f0: a3e6 bf3d db0a 1e3d fbc6 133c 7593 f9bd
00000100: 4bdb 92bd 3cd5 423c 9c52 803d 3ff1 053e
00000110: 3bf9 3dbd 6c0a f63d 5bba 10bc 9887 903d
00000120: 7c9e cdbd 6d1e 06bf 6d8b 313d e0cd 413d
00000130: 1269 86bc b33b 03bd e9d3 8d3c 460f 01be
00000140: 01f5 c7bd 2f43 8c3b c528 92bd 2201 1ebd
00000150: 5d02 86bd 6d55 1cbd 3dbe 233d be4d 853e
00000160: f47e f73d d99d 753d beb4 9dbb 7fc8 16be
00000170: 3962 ce3d 05c0 99bd 4c49 2a3d 5fbb e7be
00000180: 7b7b 7cbc 9ea9 40bd 98bc 623d 033b 4f3e
00000190: 45a2 363c 1510 d1bd 97be aebc d312 d4bc
000001a0: fae9 4ebd 8ee2 6bbc 9b68 c6bc 424a 0d3c
000001b0: 4f99 0fbd 8ddb 143d 5e49 22bd e52b 013d
000001c0: d9ce 57bc 99b3 ccbc eddc e63d 2bb9 a0bd
000001d0: 8f71 10be b344 aabd 79df cabd 2ca4 343d
000001e0: b1eb db3c 22e0 063d cb2f 8abd 9ba1 15bd
000001f0: 4a25 8d3d d144 0c3b 6dbe e63d f5b1 3f3d
00000200: 66f8 7c3d e27b 0abc 773d b8bd 30c1 2c3c
00000210: 447c 98bd d44a d1bd f9c7 bc3c 83d5 0f3a
00000220: 1954 91bb b1fe 973d a7ac 35bd 5675 80bd
00000230: 617b dbbd b9b8 2d3d fcd8 6bbd eaff b8be
00000240: 96f5 2abd e80b 85bc 7144 bdbc 3d32 71bc
00000250: 4313 4a3d cd07 823e 18a2 783d 6d8f ac3c
00000260: 5c2f 0c3e 9eee d6bd 5400 9d3d 1edf 4f3b
00000270: 965d c33d e7b1 873c 037e 4c3d 77c3 c73c
00000280: fb5d 7b3d e115 a9bb cce2 be3d 4e08 193b
00000290: 3b36 923c 452a e7bc 5bd1 2f3d a9a8 143d
000002a0: c961 a53c a22d cbbc 74e9 3f3d dacd 923d
000002b0: a77a 723c 4fb1 96bc d246 b4bd b56e 26bc
000002c0: 526b 1bbd 5453 81be 2906 b1bd 5da1 213d
000002d0: 5ed1 c93c 430e 963c 7c93 a2bd 5545 1ebd
000002e0: c081 fc3c e15a 293d 0abf 543d b3b1 39bd
000002f0: 14b1 bcbd dd10 973e f143 99bd 1b88 213c
00000300: 6955 8dbd a14c 2b3d 35f4 663d e310 9c3d
00000310: 6d38 02be abdb 67bd 0421 5e3d 11c9 1f3d
00000320: bd97 b1be 33f8 b3be 57a1 bf3c a5d4 df3b
00000330: 3290 0f3d 1f04 503d 55f3 cd3c 915d 62be
00000340: b06c c5bb 78b8 863c 793a 30bd e047 b53d
00000350: f520 343d efc8 f63c 41cf 843e aeaa e13d
00000360: c304 aa3d b594 6bbd bfe3 003e 1e50 ac3c
00000370: 6816 843d 2ffe cc3d bd24 d63e 15b1 7dbd
00000380: ff59 8a3d 3306 e03d c77c 6dbd 4c33 85bb
00000390: 5b47 37bd 9cd9 ab3d 9e44 b8bd b87b 47bd
000003a0: 8a57 b83c 731d 4fbd 385e 143c 59aa b43b
000003b0: bfdf 403a 7984 723c f83f 5dbd 7478 d0be
000003c0: a83b 9d3c c979 dc3c 0417 03be 2cab 0b3e
000003d0: 3a37 7cbc 0fb7 ac3d dadb 14bd a810 613d
000003e0: 8de4 c2bd e2ad 2bbe 6bf1 6bbc 1100 563d
000003f0: 7917 eabd b533 5a3e c195 0b3e b4fe 50bd

model/dense/BiasAdd/ReadVariableOp/resource f4 [2]
0.108105496 -0.10810563
00000000: 6a66 dd3d 7c66 ddbd

model/conv2d_2/Conv2D f4 [32, 16, 1, 1]
-0.15748468 -0.23042636 0.2159924 0.34819373 0.10094294 0.15675554 0.16920397 0.39363486
0.042738046 -0.43369117 0.11280446 -0.08530308 0.11656695 0.07628301 0.02231929 -0.12758683
-0.06947818 0.014357258 0.029061375 -0.19763422 -0.03165578 -0.036556836 0.022896107 0.089949235
0.21637298 0.021841062 -0.023144217 0.060059343 -0.046058245 -0.12327531 0.07629501 -0.00823978
-0.647184 0.045975823 0.6250378 -0.16829251 0.16517992 0.14902978 0.44725308 -0.13539338
0.40105757 -0.74882966 0.2552124 0.04294276 0.1323378 -0.21329902 0.01713713 0.39334768
-0.028004982 -0.0897034 -0.05169398 -0.18836074 0.36428416 0.73344404 -0.11448531 0.14026952
0.04988218 -0.2022257 0.62676847 0.4395851 0.037333503 -0.014974277 0.25952303 0.0922525
0.21685348 -0.1398595 -0.44506657 -0.057792548 -0.040480815 0.1324865 -0.094217576 -0.1760454
0.1698578 0.30068532 0.051412005 0.41350743 0.14034022 -0.11202643 0.07074746 -0.28805524
-0.015505344 0.006174175 -0.22720376 0.18947023 -0.05613069 -0.07100141 0.12375531 -0.1333786
0.011469348 0.056862853 0.008603513 0.28797805 -0.14346617 0.012680338 -0.008659649 0.13054141
0.039990496 0.10875709 0.087808214 -0.21218726 -0.1842757 -0.0037111575 0.09990394 -0.4568601
0.09289453 -0.116853856 0.023725126 0.17964242 -0.07379962 0.5211887 -0.036959454 0.1873603
0.38405213 -0.45383093 -0.07103067 -0.04629799 0.7375062 0.19628416 0.14477082 0.22235635
0.4194661 0.30127013 0.067708984 -0.045699667 -0.051235314 0.46498573 -0.25077745 -0.17014335
-0.10695643 0.055954244 -0.23740022 0.42989877 -0.0598761 -0.29207757 -0.595661 0.4846384
-0.21965493 -0.08660082 -0.17077118 -0.1188156 0.056681298 0.01811982 -0.25440553 0.042205486
-0.041415416 -0.39666408 0.10390187 0.36888894 -0.08414603 0.07150745 0.69465613 -0.5044597
0.0109785795 -0.009144546 0.17879604 0.13073254 0.040349215 -0.3793061 -0.09860485 0.05706097
0.16333652 -0.14559361 0.050174538 -0.30936038 -0.05927297 0.18142094 0.20478904 0.07730437
-0.08027817 0.002879117 0.052901812 0.27181917 -0.26988852 0.61902684 0.15853511 -0.2131544
-0.11547979 -0.23818748 0.046407975 0.25145534 -0.11053601 0.13456847 -0.07414621 -0.22233051
0.68125236 -0.4440653 0.10916108 0.069175884 0.18112707 0.21791148 -0.07670334 -0.14003825
-0.70655346 0.50053144 0.86143756 0.14775798 -0.11091489 0.19032763 0.15981753 -0.43296093
0.28327197 -0.21472105 0.064368136 1.2711401 -0.3238126 -0.31401762 -0.3380129 0.51943344
0.15938853 -0.1864033 -0.14315945 0.6111043 0.22727478 0.27285558 -0.059325386 -0.2515553
0.12925258 0.20524393 0.24401431 -0.033653505 0.20876348 -0.017639047 -0.34346285 -0.106849164
-0.024543801 0.120326854 0.3910957 -0.95318586 -0.073492624 0.06163182 0.100160085 0.265685
0.27184284 0.38698083 0.07634592 0.24189132 -0.21479005 -0.060965523 0.016655693 0.32117042
-0.05359194 -0.15547487 -0.18312374 -0.21168198 0.3539585 -0.25373 -0.12749244 -0.42700523
0.07172138 0.39970985 -0.123078816 0.4075525 0.03591892 -0.053165965 -0.27269658 0.13245267
00000000: aa43 21be e3f4 6bbe 1d2d 5d3e 7346 b23e
00000010: 2cbb ce3d 8684 203e ce43 2d3e 828a c93e
00000020: 170e 2f3d c50c debe 0606 e73d 62b3 aebd
00000030: a7ba ee3d 443a 9c3d f2d6 b63c 1fa6 02be
00000040: 934a 8ebd b43a 6b3c 1f12 ee3c a060 4abe
00000050: 7ea9 01bd 9fbc 15bd 9e90 bb3c 4e37 b83d
00000060: e190 5d3e 07ec b23c f198 bdbc c900 763d
00000070: 92a7 3cbd c477 fcbd 8f40 9c3d 2400 07bc
00000080: daad 25bf 2551 3c3d 7a02 203f df54 2cbe
00000090: ed24 293e 439b 183e 5bfe e43e 90a4 0abe
000000a0: 6b57 cd3e 4db3 3fbf 33ab 823e bfe4 2f3d
000000b0: 8f83 073e 0f6b 5abe 2b63 8c3c de64 c93e
000000c0: b46a e5bc 6bb6 b7bd 11bd 53bd a3e1 40be
000000d0: 7483 ba3e fdc2 3b3f 4677 eabd d0a2 0f3e
000000e0: 4251 4c3d 4114 4fbe e673 203f 4c11 e13e
000000f0: 04eb 183d ab56 75bc 34e0 843e e1ee bc3d
00000100: d70e 5e3e 5437 0fbe c4df e3be e1b7 6cbd
00000110: 36cf 25bd 8baa 073e 25f5 c0bd 3f45 34be
00000120: 34ef 2d3e 6df3 993e 6595 523d 3fb7 d33e
00000130: 59b5 0f3e 1d6e e5bd 0be4 903d fa7b 93be
00000140: 200a 7ebc bc50 ca3b 1aa8 68be 7c04 423e
00000150: 4be9 65bd 3069 91bd 6d73 fd3d 6694 08be
00000160: efe9 3b3c 06e9 683d c0f5 0c3c dc71 933e
00000170: cce8 12be 31c1 4f3c 33e1 0dbc a6ac 053e
00000180: 13cd 233d 0abc de3d cbd4 b33d 9e47 59be
00000190: c5b2 3cbe e436 73bb 709a cc3d 91e9 e9be
000001a0: 7d3f be3d 1351 efbd 325b c23c 2ff4 373e
000001b0: 4124 97bd 9f6c 053f cc62 17bd 61db 3f3e
000001c0: 7ba2 c43e 875c e8be 8778 91bd f6a2 3dbd
000001d0: 35cd 3c3f b7fe 483e cd3e 143e 62b1 633e
000001e0: 43c4 d63e 1440 9a3e 02ab 8a3d 932f 3bbd
000001f0: 1fdc 51bd 9c12 ee3e e765 80be 0f3a 2ebe
00000200: f90b dbbd 4730 653d 0b19 73be b11b dc3e
00000210: a440 75bd 318b 95be 3d7d 18bf 8622 f83e
00000220: 39ed 60be c55b b1bd a4de 2ebe 9855 f3bd
00000230: a62a 683d 0470 943c 7141 82be a9df 2c3d
00000240: 36a3 29bd 8e17 cbbe 81ca d43d 03df bc3e
00000250: c154 acbd 7f72 923d fcd4 313f 4524 01bf
00000260: 80df 333c 02d3 15bc 4f16 373e c0de 053e
00000270: 3845 253d 6934 c2be 57f1 c9bd c4b8 693d
00000280: b041 273e 7e16 15be d183 4d3d 7c64 9ebe
00000290: 37c8 72bd 69c6 393e 38b4 513e c151 9e3d
000002a0: e268 a4bd 91af 3c3b 92af 583d e22b 8b3e
000002b0: d42e 8abe 8b78 1e3f 0757 223e 2645 5abe
000002c0: ab80 ecbd 6be7 73be 4a16 3e3d c1be 803e
000002d0: b460 e2bd 51cc 093e f8d9 97bd 9caa 63be
000002e0: 8e66 2e3f 875c e3be d88f df3d 16ac 8d3d
000002f0: 6079 393e 3024 5f3e a416 9dbd 3066 0fbe
00000300: b0e0 34bf d422 003f 2c87 5c3f de4d 173e
00000310: 5927 e3bd 3fe5 423e 35a7 233e 0ead ddbe
00000320: 0609 913e d6df 5bbe 71d3 833d b8b4 a23f
00000330: c4ca a5be ebc6 a0be 0710 adbe 97f9 043f
00000340: bf36 233e 82e0 3ebe 6498 12be 5571 1c3f
00000350: b8ba 683e bab3 8b3e 2dff 72bd dbcb 80be
00000360: ca5a 043e 772b 523e e3de 793e 42d8 09bd
00000370: 18c6 553e c37f 90bc 5dda afbe bcd3 dabd
00000380: 1510 c9bc ed6d f63d b23d c83e fd03 74bf
00000390: 4d83 96bd a671 7c3d bb20 cd3d dd07 883e
000003a0: fc2e 8b3e 5a22 c63e 405b 9c3d 5cb2 773e
000003b0: ecf1 5bbe fcb6 79bd 8571 883c 7370 a43e
000003c0: 3983 5bbd ce34 1fbe ca84 3bbe 29c3 58be
000003d0: 0c3a b53e e6e8 81be 618d 02be 6ea0 dabe
000003e0: a9e2 923d c5a6 cc3e bf10 fcbd b9aa d03e
000003f0: b81f 133d 8ec4 59bd e39e 8bbe aca1 073e

model/batch_normalization_15/FusedBatchNormV3;model/depthwise_conv2d_7/depthwise;model/depthwise_conv2d_7/BiasAdd;model/depthwise_conv2d_11/depthwise;model/depthwise_conv2d_7/BiasAdd/ReadVariableOp/resource f4 [128, 1, 3, 3]
-0.61579293 -0.67105883 -1.8116198 -0.11423985 0.7118299 -5.5469174 -0.45544297 -0.17448956
-2.6887455 -0.3415175 -0.5133329 -0.45353034 0.32964432 0.5296017 0.6095143 -0.30210978
-0.11720406 -0.10053659 -0.11514058 0.20025897 1.1142806 -1.0347841 -0.36630705 0.7422801
0.1916933 -0.057257302 0.8922897 0.68110025 0.4732125 0.4810835 0.21057987 0.120400205
-0.15058698 -0.8992227 -0.5051855 -0.9712574 0.04541929 0.23076887 0.93330485 -0.7744786
-0.25261602 0.495607 0.02432962 0.019236716 1.1590556 -0.8614385 0.89697987 -0.45540792
-3.251069 -1.6447178 0.27762732 -5.5041337 -2.9385881 -0.07854218 0.0028545079 0.40907136
0.17987905 -0.1741909 -0.2065124 -0.4224567 0.7079822 1.0616479 0.17344959 -0.22874035
-0.14682212 -0.53177 0.71297425 0.3553018 0.50935405 0.31308937 0.30050293 0.39389327
-0.55407417 -0.24512899 -0.5530476 0.40725464 0.16078772 0.37473452 0.3375454 0.43481627
0.5423556 1.1594878 -0.21743365 -0.66871595 0.60649055 0.48304197 -0.20330906 0.11598068
-0.37068433 -0.13392092 -3.5741165 -4.13666 -11.104967 -2.3125007 0.75709754 -1.7454138
1.0453687 0.98194194 -2.3264413 1.5488689 0.15643266 -0.19968253 -0.17057532 -0.5339819
-0.4193773 0.15909131 0.8141904 0.9010723 -6.758461 0.8300287 0.31882378 -3.6444838
-0.7594071 -1.1561605 -0.5470689 -1.6732265 -0.00012820096 -8.050537 -5.6641994 -8.84708
-3.8065932 -0.6301261 -1.2200603 -0.7248274 -2.4146059 2.0035331 0.5662249 0.88325554
-2.7880661 -1.3468566 -3.3102388 -5.2149434 -1.7312727 -2.8033261 -7.726138 0.7968097
-0.12737808 -0.27868795 1.1068339 0.08669943 -0.020247076 -0.20821321 0.02212632 0.08926024
-0.402842 0.025297508 0.19245571 0.22865725 0.34896204 0.34873372 0.3243684 0.4185743
0.5843366 -0.23215148 0.45687863 -5.854255 -0.5250605 0.22996958 -3.3034618 -0.61381924
0.28431806 -2.7663658 -2.914414 -1.9350324 -6.1004195 0.3808436 0.9857537 -2.0119288
-1.6382953 -0.42701498 -0.27305916 0.9705284 1.3331709 -0.22938834 0.30208436 -0.42366347
-0.35993809 -0.77929324 0.289549 0.44962218 0.5342367 -0.69086814 -5.399871 0.6053951
-2.8174813 -5.555322 0.035726625 -1.3864475 -1.2808039 0.49961323 0.19742171 0.2877425
0.587236 0.30527416 0.22155061 -0.066381685 -0.09644757 -0.21384388 -1.636036 -0.004376882
-1.7762345 0.53199476 0.52774423 -5.5593596 -1.6138881 0.23097326 -5.630571 -1.3739027
-6.1585574 -1.683874 -0.47836947 0.47975075 -0.59604686 0.27838314 -1.6203512 0.5855622
-6.4873686 -5.4573765 -2.3326378 -0.6251626 0.9853051 -1.0997263 0.33683136 -1.0509431
0.89390194 0.04533236 0.35359085 0.207503 0.10366611 0.6498949 -0.19116919 0.38638613
0.4501938 -0.38057184 -0.7787861 -0.055003274 -1.1179471 -0.2797471 -1.8490425 0.7211189
-0.29245198 -0.35439777 -3.1025884 -1.5717782 -3.39197 -8.560054 -0.117957845 1.1508286
-1.4190165 -0.10488445 -0.686716 0.33463892 -0.9664946 -6.648905 -3.4213252 0.49056217
00000000: 9ba4 1dbf 83ca 2bbf 28e3 e7bf 95f6 e9bd
00000010: 7c3a 363f 5980 b1c0 d22f e9be 64ad 32be
00000020: 6814 2cc0 62db aebe c969 03bf 2135 e8be
00000030: 24c7 a83e fa93 073f 2109 1c3f 22ae 9abe
00000040: af08 f0bd 21e6 cdbd d3ce ebbd b010 4d3e
00000050: bfa0 8e3f ce73 84bf 998c bbbe 1206 3e3f
00000060: 404b 443e a286 6abd 196d 643f 965c 2e3f
00000070: e948 f23e 9450 f63e 40a2 573e 6294 f63d
00000080: 7933 1abe 7533 66bf d653 01bf 53a4 78bf
00000090: 9409 3a3d ad4e 6c3e 11ed 6e3f 3b44 46bf
000000a0: e356 81be 33c0 fd3e e94e c73c 5196 9d3c
000000b0: ef5b 943f 3c87 5cbf 79a0 653f 3a2b e9be
000000c0: 8411 50c0 1d86 d2bf 2b25 8e3e dd21 b0c0
000000d0: d411 3cc0 b9da a0bd b212 3b3b cd71 d13e
000000e0: 3732 383e 195f 32be fd77 53be 3f4c d8be
000000f0: 523e 353f 14e4 873f c59c 313e e93a 6abe
00000100: 8a58 16be 1422 08bf 7b85 363f 1eea b53e
00000110: 0765 023f 404d a03e 85db 993e 61ac c93e
00000120: ced7 0dbf 1803 7bbe 8794 0dbf ae83 d03e
00000130: 89a5 243e 34dd bf3e c0d2 ac3e 3da0 de3e
00000140: d1d7 0a3f 196a 943f eda6 5ebe f830 2bbf
00000150: f742 1b3f 4751 f73e 4030 50be 4787 ed3d
00000160: 56ca bdbe 9122 09be 53be 64c0 855f 84c0
00000170: f2ad 31c1 0300 14c0 25d1 413f b869 dfbf
00000180: a4ce 853f 8c60 7b3f 6ae4 14c0 5641 c63f
00000190: e22f 203e 9479 4cbe 4cab 2ebe 0ab3 08bf
000001a0: 9fb8 d6be d5e8 223e c86e 503f adac 663f
000001b0: 5045 d8c0 c37c 543f df3c a33e 393f 69c0
000001c0: 8168 42bf 11fd 93bf b50c 0cbf 492c d6bf
000001d0: af6d 06b9 00cf 00c1 1f41 b5c0 a48d 0dc1
000001e0: 399f 73c0 f24f 21bf f02a 9cbf 4a8e 39bf
000001f0: e788 1ac0 e339 0040 1df4 103f 091d 623f
00000200: ad6f 32c0 cc65 acbf f4da 53c0 d1e0 a6c0
00000210: 589a ddbf b269 33c0 863c f7c0 b8fb 4b3f
00000220: 666f 02be 30b0 8ebe bcac 8d3f 798f b13d
00000230: 32dd a5bc d835 55be 4242 b53c 13ce b63d
00000240: 4e41 cebe b83c cf3c 1c13 453e 2025 6a3e
00000250: 27ab b23e 3a8d b23e 9d13 a63e 5f4f d63e
00000260: 1597 153f 1eb9 6dbe ffeb e93e 0f56 bbc0
00000270: 5d6a 06bf 257d 6b3e eb6b 53c0 4223 1dbf
00000280: 2392 913e 230c 31c0 c285 3ac0 24af f7bf
00000290: a336 c3c0 effd c23e 5b5a 7c3f 71c3 00c0
000002a0: a9b3 d1bf b5a1 dabe 69ce 8bbe 8d74 783f
000002b0: 58a5 aa3f c7e4 6abe cdaa 9a3e 6bea d8be
000002c0: ce49 b8be c37f 47bf c43f 943e e134 e63e
000002d0: bdc3 083f bcdc 30bf becb acc0 2cfb 1a3f
000002e0: 9d51 34c0 33c5 b1c0 1556 123d 1d77 b1bf
000002f0: 62f1 a3bf 4ecd ff3e eb28 4a3e fc52 933e
00000300: 1955 163f e54c 9c3e 2ade 623e 1ff3 87bd
00000310: 4e86 c5bd e4f9 5abe a169 d1bf f36b 8fbb
00000320: a75b e3bf cf30 083f 3f1a 073f 46e6 b1c0
00000330: e393 cebf 4184 6c3e a32d b4c0 0bdc afbf
00000340: e712 c5c0 2f89 d7bf d8ec f4be e4a1 f53e
00000350: 8796 18bf 3c88 8e3e ab67 cfbf 68e7 153f
00000360: 8698 cfc0 d4a2 aec0 f049 15c0 a80a 20bf
00000370: f43c 7c3f d5c3 8cbf 2975 ac3e 4e85 86bf
00000380: c2d6 643f 6dae 393d dc09 b53e ab7b 543e
00000390: e64e d43d 835f 263f dbc1 43be 67d4 c53e
000003a0: cd7f e63e 50da c2be 875e 47bf 1d4b 61bd
000003b0: e418 8fbf 033b 8fbe 6dad ecbf 409b 383f
000003c0: 44bc 95be a073 b5be cf90 46c0 0730 c9bf
000003d0: 0916 59c0 fbf5 08c1 e293 f1bd 5a4e 933f
000003e0: 55a2 b5bf a9cd d6bd 9fcc 2fbf cb55 ab3e
000003f0: 316c 77bf d4c3 d4c0 fef6 5ac0 f72a fb3e

model/activation_15/Relu;model/batch_normalization_15/FusedBatchNormV3;model/depthwise_conv2d_7/depthwise;model/depthwise_conv2d_7/BiasAdd;model/depthwise_conv2d_11/depthwise;model/depthwise_conv2d_7/BiasAdd/ReadVariableOp/resource f4 [128]
-0.39431918 -0.38703138 -0.16659123 -0.08261086 -0.30469385 -0.45337877 -0.14358626 -1.1207585
-1.011829 -0.55363464 -0.5670987 -0.2740434 -0.39160728 -0.5149032 -0.54526025 -0.22133633
-1.3412459 -0.38162574 -0.34660947 0.036803003 -0.4141911 -0.8716067 -0.45160285 -0.37498915
-0.45452267 -0.6202301 -0.34961835 -0.38734582 -0.330158 -0.37936437 -0.36225048 -0.2701192
-0.7228595 -0.69935024 -0.17452982 -0.86791885 -0.3512037 -0.7004007 -0.71116316 0.9789472
-0.46011564 -1.1807199 -0.49963486 -1.0207403 -0.009588193 -0.25772816 0.29731223 -0.33429086
0.6338741 -0.3548813 0.04194168 -0.46660015 -0.5402175 -0.07000905 0.06945853 -0.38779393
-0.47276628 -0.44117934 -0.7980398 0.014814936 -0.09140462 -0.6517836 0.0988037 0.017406106
-0.7191339 0.078660056 -0.59706724 1.0977327 -0.92270935 -0.47105256 -0.24751838 -0.3973559
-0.29037264 0.029621977 -0.6765854 -0.44650987 0.022646103 -0.533873 -0.781521 -0.36925817
-0.9459974 -0.27959517 -0.21185252 -0.18137164 0.4703605 -0.03392551 -0.37569028 -0.37953
-0.38967574 -0.41787416 -0.43897992 -0.34543693 -0.868797 0.20065409 -0.038899902 -0.36496425
-1.1526439 -0.38249514 0.0073517095 -0.3549989 -0.5997133 0.15130666 0.10682237 -0.9969117
-0.5846297 -1.0598156 -0.41624045 -0.23210059 -0.43167025 -0.31601956 -0.52711034 -0.40463066
-0.61345255 -0.5834074 -0.3947171 -0.24159098 -0.18402165 -0.07653928 -0.39761418 0.24314
-0.26537126 -0.514512 0.019228399 -0.025032267 -0.6112441 -0.5621505 -0.45425093 -0.726421
00000000: 34e4 c9be fa28 c6be e496 2abe e22f a9bd
00000010: d500 9cbe 4321 e8be 4708 13be 0475 8fbf
00000020: 9d83 81bf 00bb 0dbf 612d 11bf 6b4f 8cbe
00000030: c080 c8be b2d0 03bf 2d96 0bbf fea5 62be
00000040: f2ad abbf 7364 c3be cc76 b1be bfbe 163d
00000050: db10 d4be 9e21 5fbf 7d38 e7be 94fe bfbe
00000060: 32b7 e8be 66c7 1ebf 2d01 b3be 3152 c6be
00000070: 780a a9be 0c3c c2be e578 b9be 104d 8abe
00000080: 520d 39bf 9e08 33bf f2b7 32be ee2f 5ebf
00000090: f9d0 b3be 764d 33bf ca0e 36bf 499c 7a3f
000000a0: 4794 ebbe d421 97bf 24d0 ffbe 9ea7 82bf
000000b0: cc17 1dbc f2f4 83be 4f39 983e 2c28 abbe
000000c0: 9345 223f 00b3 b5be 0acb 2b3d 37e6 eebe
000000d0: b24b 0abf e860 8fbd 4640 8e3d ed8c c6be
000000e0: 6c0e f2be 42e2 e1be 564c 4cbf 58ba 723c
000000f0: 5832 bbbd 4adb 26bf 9859 ca3d 4097 8e3c
00000100: 2919 38bf 8618 a13d 66d9 18bf 8182 8c3f
00000110: ae36 6cbf cd2d f1be 7575 7dbe 3c72 cbbe
00000120: b9ab 94be caa9 f23c b334 2dbf f19c e4be
00000130: 5284 b93c e7ab 08bf c311 48bf 680f bdbe
00000140: e32c 72bf 1927 8fbe deef 58be 7db9 39be
00000150: 17d3 f03e 7af5 0abd 7a5a c0be c251 c2be
00000160: 9483 c7be 9af3 d5be fac1 e0be 1cdd b0be
00000170: 7b69 5ebf 4478 4d3e 8155 1fbd 98dc babe
00000180: d689 93bf 67d6 c3be 9ce6 f03b 6ac2 b5be
00000190: d086 19bf 22f0 1a3e b0c5 da3d 9b35 7fbf
000001a0: 4baa 15bf 0aa8 87bf 781d d5be c7ab 6dbe
000001b0: e203 ddbe 51cd a1be b4f0 06bf c02b cfbe
000001c0: 3a0b 1dbf 305a 15bf 5c18 cabe a063 77be
000001d0: 2c70 3cbe a0c0 9cbd 1694 cbbe b1f9 783e
000001e0: bede 87be 0fb7 03bf e084 9d3c 7810 cdbc
000001f0: 7e7a 1cbf 18e9 0fbf 9493 e8be baf6 39bf

model/conv2d_1/Conv2D f4 [16, 8, 1, 1]
1.134484 -0.1994989 0.5334882 -0.35104284 0.7664758 0.020275299 0.15842737 -0.030931005
-0.045972146 0.23862904 -0.5432612 -1.0097847 0.56594115 -0.57244676 0.99148303 -0.35014704
0.4834844 0.6674324 -0.035533097 -0.10817687 -0.26573843 -0.008668593 0.29409665 -0.006539765
0.043930598 -0.14405528 0.25966716 0.13904786 0.33696026 0.042433344 -0.07520688 -0.2637453
-0.06294452 0.06762179 0.19355153 -0.014590194 0.14099123 -0.0070437565 0.23490563 -0.25610438
-0.038268685 0.041313138 0.049982037 0.13412185 0.104417816 0.43688086 -0.024177136 0.04536388
-0.033192948 0.04524085 -0.11755882 0.92827946 0.3094921 -0.05025291 0.22515994 0.04273987
-0.06637583 -0.070408985 0.29974353 -1.1923833 -0.16316551 0.15130596 -0.17303795 0.221196
0.00013441654 -0.122070104 -0.2043049 0.059051108 0.108004145 -0.019999593 -0.061893724 -0.3377449
-0.08975361 0.39694506 0.040630918 0.07856032 0.19944496 0.09115239 0.3169283 -0.05016103
0.08397502 -0.07747738 -0.09602548 -0.15758577 -0.053971097 -0.4876029 -0.034516264 -0.10237519
-0.4661402 -0.11643266 -0.039814394 -0.03152017 -0.039907455 -0.061581735 0.3574001 -0.13919261
0.260967 -0.2304471 0.29408816 1.149075 -0.23965798 -0.4866679 0.4572831 0.6805367
-0.103836566 0.113624945 0.41472146 0.0551479 0.053415284 0.23426884 0.11395342 0.14336827
-0.8009686 -0.43024498 0.6232772 0.25949726 -0.7265174 -0.28738216 -0.9148393 -0.5080322
-0.08801028 0.17824101 -0.10978929 -0.28633592 -0.39107522 -0.12862964 1.0843521 -0.09640808
00000000: c636 913f 7149 4cbe af92 083f e3bb b3be
00000010: c237 443f 6218 a63c c93a 223e 0563 fdbc
00000020: 4a4d 3cbd 2c5b 743e 2a13 0bbf a040 81bf
00000030: 85e1 103f df8b 12bf d5d1 7d3f 7946 b3be
00000040: 448b f73e dadc 2a3f 278b 11bd d68b ddbd
00000050: de0e 88be b706 0ebc d693 963e 864b d6bb
00000060: 92f0 333d 3a83 13be 18f3 843e 9062 0e3e
00000070: 0e86 ac3e 96ce 2d3d 1106 9abd a009 87be
00000080: 0ee9 80bd 4b7d 8a3d 5f32 463e b60b 6fbc
00000090: 0160 103e 50cf e6bb 1a8b 703e 1d20 83be
000000a0: a0bf 1cbd f737 293d f7b9 4c3d 3d57 093e
000000b0: 02d9 d53d d9ae df3e 210f c6bc 7acf 393d
000000c0: 54f5 07bd 784e 393d aec2 f0bd b9a3 6d3f
000000d0: c075 9e3e ffd5 4dbd 5490 663e 0010 2f3d
000000e0: 0df0 87bd 9632 90bd fc77 993e 04a0 98bf
000000f0: dc14 27be f3ef 1a3e dc30 31be 3481 623e
00000100: 2af2 0c39 e4ff f9bd 4e35 51be 93df 713d
00000110: 4731 dd3d 30d6 a3bc 4684 7dbd e6ec acbe
00000120: bed0 b7bd 623c cb3e 9b6c 263d 3ce4 a03d
00000130: 4d3b 4c3e 1bae ba3d 6d44 a23e a775 4dbd
00000140: 18fb ab3d 76ac 9ebd 02a9 c4bd 2a5e 21be
00000150: cc10 5dbd 16a7 f9be ed60 0dbd 15aa d1bd
00000160: eea9 eebe 3f74 eebd 6b14 23bd 4b1b 01bd
00000170: 0076 23bd 213d 7cbd 25fd b63e 8288 0ebe
00000180: 779d 853e 53fa 6bbe b992 963e e414 933f
00000190: e768 75be 892c f9be 0321 ea3e a737 2e3f
000001a0: 44a8 d4bd 32b4 e83d 5f56 d43e c4e2 613d
000001b0: fcc9 5a3d 2ce4 6f3e 6960 e93d 22cf 123e
000001c0: 470c 4dbf 1249 dcbe 188f 1f3f d3dc 843e
000001d0: 0bfd 39bf c123 93be e932 6abf 660e 02bf
000001e0: bc3e b4bd d084 363e 35d9 e0bd 9f9a 92be
000001f0: 033b c8be 7db7 03be 0dcc 8a3f 9971 c5bd

model/batch_normalization_13/FusedBatchNormV3;model/depthwise_conv2d_6/depthwise;model/depthwise_conv2d_6/BiasAdd;model/depthwise_conv2d_11/depthwise;model/depthwise_conv2d_6/BiasAdd/ReadVariableOp/resource f4 [128, 1, 3, 3]
-0.8858464 -0.19626749 -0.9437579 -0.3764918 0.023881387 -0.05713447 -0.6496316 -0.92440546
-0.4448496 -0.6828957 0.80283403 0.41034552 -0.417339 0.42987472 0.7226596 -0.15179761
-0.013826849 0.44346043 1.1327916 0.35260993 -0.95140094 0.897993 -0.06764343 -0.610638
-0.039631933 -1.6116884 0.07489965 0.037233442 -0.4516835 -0.45107883 -0.29956502 -0.6509452
-0.11627821 -0.5723531 -0.32863313 -0.26555836 0.116090484 0.13894273 1.0694323 0.07521723
-0.18503906 0.6672745 -0.28982255 -0.17803602 0.11602762 -0.3328588 -0.7127375 -0.7809534
0.90685326 0.08909527 0.16371165 0.29803726 0.8423328 0.15721597 0.120860204 -0.28216052
-0.4107907 0.9965816 -0.043965254 -0.7983852 0.36609823 -0.53459156 -0.35811573 0.2884488
0.53301394 0.22440566 -0.8357689 -0.1897921 0.26000234 -0.85327226 -1.0360324 -1.2721908
0.61057496 0.6527321 -0.33799517 0.5265743 0.1814542 -0.43951666 -0.4084445 -0.7756239
-0.419112 -0.6673367 -0.32712197 -0.5938692 0.19334634 -0.10666717 -0.55847174 0.10625328
0.18954566 -0.28308174 1.857704 -0.09996044 0.124467015 -0.049696058 -0.19766532 0.1157792
0.14050305 0.16682698 -0.1875036 -0.19743314 0.5821158 0.5896794 0.2476348 -0.4134946
0.031666797 1.5490239 -0.45542812 -0.6272212 -0.09708575 -0.6252696 0.71725625 -0.7245371
-0.4265597 0.52500725 -0.8206957 -0.22990988 1.3524755 -0.5423292 -0.25741845 -0.8481521
0.08993947 0.65697956 0.03023921 -0.6773315 -0.45838445 -0.33797473 -1.0339108 -0.58020097
-0.40388605 0.36448383 -0.55062467 -0.7032646 0.32265458 -0.24936828 -0.14581649 0.7963125
0.72865796 0.7925373 -0.3070904 -0.1551102 0.053203862 -0.40758112 -0.69956166 -0.21502034
-0.2090317 -0.8473521 0.40833429 0.43453637 -0.6713194 -0.55345154 0.43266585 1.314705
-0.43623528 -0.01976224 -1.170352 0.47161415 -0.24814385 -2.81943 -0.85846776 0.47760567
-2.044431 -3.4933665 0.09571031 0.0758949 0.47003993 0.2789481 -0.3800643 0.4866875
0.7942699 -0.09845105 0.944161 0.25393915 -0.8994522 -9.351128 -5.262104 -3.7257676
-8.085432 2.1115508 -1.4730551 -0.9766745 -0.16827147 -0.046421066 -0.21028076 0.15157697
-0.21690914 -0.34316725 -0.73806727 -1.5879673 -1.589878 0.18822299 0.58502495 0.53295577
-0.08117166 0.94499105 0.09940372 0.30434468 0.8803506 0.5460966 -0.8206771 -0.1392742
1.8328048 -0.022538576 -0.1795237 0.017288966 0.44387978 -0.72079617 -0.70968044 -2.35773
-2.2703955 0.20820594 -0.37802276 -3.9617653 -0.013084611 -0.73213375 -5.2225227 0.39749274
0.14302623 -0.0036224287 0.13201411 0.21824941 -0.08707552 0.10358233 0.9226289 0.21231507
0.5573136 0.014274523 -1.0730147 -0.3245212 0.6066313 -0.8256977 -3.9356894 0.2743316
-2.8789368 -2.6602042 -0.2119362 0.18231495 0.57869613 -0.07595003 -0.11389044 0.18342897
-0.2599869 -0.6762926 -0.39932096 0.6969282 0.035737637 0.69184124 0.33870733 -0.32402658
-0.28816855 0.77980447 -0.5926612 -0.10887514 0.567905 0.5131749 -0.19105819 -0.10685191
00000000: d4c6 62bf 58fa 48be 1e9a 71bf 89c3 c0be
00000010: e6a2 c33c d605 6abd 424e 26bf d6a5 6cbf
00000020: 54c3 e3be 41d2 2ebf 8886 4d3f cf18 d23e
00000030: 75ad d5be 8a18 dc3e 3800 393f d570 1bbe
00000040: 028a 62bc 3f0d e33e 51ff 903f 4a89 b43e
00000050: 038f 73bf dfe2 653f a388 8abd c652 1cbf
00000060: 1855 22bd ce4b cebf fd64 993d 1882 183d
00000070: 0f43 e7be cef3 e6be 9660 99be 58a4 26bf
00000080: 4523 eebd bc85 12bf 9a42 a8be 44f7 87be
00000090: d9c0 ed3d 0147 0e3e 28e3 883f 7e0b 9a3d
000000a0: e17a 3dbe 80d2 2a3f 9f63 94be 134f 36be
000000b0: e49f ed3d 786c aabe f775 36bf 90ec 47bf
000000c0: 8927 683f 9577 b63d 07a4 273e 5798 983e
000000d0: 1fa3 573f 39fd 203e 8e85 f73d 5877 90be
000000e0: 2953 d2be f91f 7f3f e914 34bd f962 4cbf
000000f0: 3a71 bb3e feda 08bf f25a b7be 90af 933e
00000100: 9a73 083f 99ca 653e f3f4 55bf dc58 42be
00000110: 071f 853e 0d70 5abf b69c 84bf 26d7 a2bf
00000120: a44e 1c3f 7319 273f b40d adbe 93cd 063f
00000130: 21cf 393e 5408 e1be a31f d1be 4a8f 46bf
00000140: d995 d6be 94d6 2abf 887c a7be d007 18bf
00000150: 95fc 453e 5174 dabd 01f8 0ebf 529b d93d
00000160: 4218 423e 17f0 90be 3fc9 ed3f 0fb8 ccbd
00000170: 90e8 fe3d 188e 4bbd c768 4abe a51d ed3d
00000180: 08e0 0f3e b1d4 2a3e f200 40be ea2b 4abe
00000190: 8b05 153f 3bf5 163f fa93 7d3e 90b5 d3be
000001a0: 0bb5 013d 6a46 c63f e02d e9be 9291 20bf
000001b0: e5d4 c6bd ab11 20bf 1b9e 373f 437b 39bf
000001c0: 0866 dabe e066 063f 1d19 52bf 7f6d 6bbe
000001d0: eb1d ad3f 16d6 0abf 5acc 83be 7f20 59bf
000001e0: 2f32 b83d d02f 283f 38b8 f73c 9965 2dbf
000001f0: 5eb1 eabe 060b adbe 3057 84bf 0d88 14bf
00000200: 27ca cebe a09d ba3e bdf5 0cbf 2609 34bf
00000210: fb32 a53e 665a 7fbe eb50 15be 23db 4b3f
00000220: 5489 3a3f b9e3 4a3f f43a 9dbe 35d5 1ebe
00000230: 4bec 593d 79ae d0be 7916 33bf 4b2e 5cbe
00000240: 680c 56be 11ec 58bf 3111 d13e 8d7b de3e
00000250: 97db 2bbf 00af 0dbf 6186 dd3e 4148 a83f
00000260: 3b5a dfbe 6ce4 a1bc 18ce 95bf 6977 f13e
00000270: 6c19 7ebe 8b71 34c0 8bc4 5bbf bb88 f43e
00000280: f5d7 02c0 5193 5fc0 c403 c43d c96e 9b3d
00000290: 13a9 f03e 49d2 8e3e ca97 c2be 1b2f f93e
000002a0: 4655 4b3f b4a0 c9bd 89b4 713f 5004 823e
000002b0: 8042 66bf 389e 15c1 2863 a8c0 fa72 6ec0
000002c0: ee5d 01c1 a623 0740 128d bcbf 5707 7abf
000002d0: 5b4f 2cbe 0424 3ebd d753 57be fe36 1b3e
000002e0: 6e1d 5ebe 9eb3 afbe faf1 3cbf 8342 cbbf
000002f0: 1f81 cbbf 87bd 403e 32c4 153f ca6f 083f
00000300: 543d a6bd efea 713f 2d94 cb3d 11d3 9b3e
00000310: a85e 613f fdcc 0b3f e517 52bf e59d 0ebe
00000320: 5999 ea3f d2a2 b8bc 10d5 37be 97a1 8d3c
00000330: 3644 e33e 1986 38bf 9ead 35bf 0ce5 16c0
00000340: 294e 11c0 f033 553e 338c c1be 908d 7dc0
00000350: d660 56bc 1e6d 3bbf e81e a7c0 2b84 cb3e
00000360: 7875 123e 4566 6dbb b52e 073e c67c 5f3e
00000370: a654 b2bd f922 d43d 6831 6c3f 1f69 593e
00000380: 1bac 0e3f b0df 693c 8c58 89bf a527 a6be
00000390: 304c 1b3f ed60 53bf 56e2 7bc0 3175 8c3e
000003a0: 8040 38c0 c940 2ac0 ce05 59be c5b0 3a3e
000003b0: 6e25 143f b08b 9bbd 643f e9bd ced4 3b3e
000003c0: 011d 85be 8321 2dbf cc73 ccbe e369 323f
000003d0: a161 123d 821c 313f 0c6b ad3e d0e6 a5be
000003e0: d48a 93be 44a1 473f a5b8 17bf eef9 debd
000003f0: 3962 113f 6e5f 033f c2a4 43be 2dd5 dabd

model/activation_2/Relu;model/batch_normalization_2/FusedBatchNormV3;model/conv2d_1/BiasAdd/ReadVariableOp/resource;model/conv2d_1/BiasAdd;model/depthwise_conv2d_1/depthwise;model/conv2d_1/Conv2D f4 [16]
-0.79188716 0.9686425 -0.23106934 0.4033405 0.5587362 0.08204004 -0.9798577 1.7273548
1.0800121 -0.021836583 1.4389303 0.697417 -1.602405 -0.03496703 1.7994988 -0.13520357
00000000: 1eb9 4abf f4f8 773f 719d 6cbe a582 ce3e
00000010: 5609 0f3f 9c04 a83d f4d7 7abf f619 dd3f
00000020: d63d 8a3f a2e2 b2bc de2e b83f ec89 323f
00000030: 9b1b cdbf 9739 0fbd fa55 e63f ce72 0abe

model/activation_13/Relu;model/batch_normalization_13/FusedBatchNormV3;model/depthwise_conv2d_6/depthwise;model/depthwise_conv2d_6/BiasAdd;model/depthwise_conv2d_11/depthwise;model/depthwise_conv2d_6/BiasAdd/ReadVariableOp/resource f4 [128]
1.6681161 -1.0015475 -0.08280097 1.2759857 -0.26478958 -0.07304412 0.027613536 1.448731
-0.091349736 1.190989 -0.62258387 -0.3059714 -0.11649237 0.44403198 1.4741464 -0.07371473
0.053483747 0.3772737 -0.6345619 -0.60416996 -0.07354079 -1.7459847 0.090453394 -0.26747584
-1.2170557 -0.2173909 0.30142036 -0.26530603 0.010886358 -1.3180281 -0.23619212 0.03833352
-0.15496945 0.48839843 1.4655495 1.0088034 -0.2082663 1.1515801 -1.6015455 -0.6694408
-0.7447169 -0.025279814 -0.65364087 -0.14990345 -0.7041143 -0.5696471 -0.3219652 -0.5537325
-0.19697848 -0.5604777 0.3857051 2.1659536 -0.38171697 -0.3247256 -0.040245883 0.47639722
1.4751644 -0.4278046 1.1248847 -0.46815482 1.0729892 -0.8668181 -0.89152163 0.20799074
-0.09324214 -0.121264525 -0.11126523 -0.40211314 -0.4771275 1.6464971 -0.7307776 -0.32592648
-0.35391608 0.07512529 -0.032988027 0.07754299 -0.018383875 -0.73922294 -0.008905917 1.8959502
-0.33399928 0.0060709864 0.19093966 -0.1773228 -0.7321712 -0.20003554 -0.42457646 -0.5753177
0.4671216 -0.6082421 2.0292385 0.177587 -0.73011833 1.4478534 -0.030819565 0.80489266
-0.15171224 -0.7977679 -0.41773096 -0.06697293 -0.10797471 -0.1472226 1.9096125 -0.52525115
-0.51678956 -0.3093756 0.14305256 -0.077759825 -0.22501436 -0.120771274 -0.39345694 0.13069525
0.08477204 -0.39313468 -0.014114946 -0.14618361 0.3383957 1.328638 -0.48298508 -0.8536046
0.17055674 -0.066020444 -0.10201114 -0.09070811 -0.89833945 0.31252712 0.00980635 -0.23880474
00000000: d484 d53f b532 80bf 8e93 a9bd 8053 a33f
00000010: 8092 87be 2898 95bd c835 e23c 0470 b93f
00000020: 9215 bbbd 5472 983f a861 1fbf 49a8 9cbe
00000030: 8d93 eebd 2958 e33e d4b0 bc3f c0f7 96bd
00000040: c611 5b3d 052a c13e a672 22bf e2aa 1abf
00000050: 8e9c 96bd 6d7c dfbf a13f b93d 98f2 88be
00000060: 7bc8 9bbf b89b 5ebe c553 9a3e 31d6 87be
00000070: b25c 323c 25b5 a8bf 59dc 71be 9c03 1d3d
00000080: 50b0 1ebe 5c0f fa3e 2097 bb3f 7820 813f
00000090: c343 55be fa66 933f 71ff ccbf 7960 2bbf
000000a0: c4a5 3ebf 9d17 cfbc 0255 27bf 4a80 19be
000000b0: d640 34bf 64d4 11bf 9fd8 a4be 6ac1 0dbf
000000c0: bab4 49be 777b 0fbf 247b c53e fc9e 0a40
000000d0: 6870 c3be 6f42 a6be ded8 24bd 56ea f33e
000000e0: 30d2 bc3f 3409 dbbe 39fc 8f3f fdb1 efbe
000000f0: b657 893f cae7 5dbf c33a 64bf 86fb 543e
00000100: bcf5 bebd 8959 f8bd 06df e3bd c6e1 cdbe
00000110: 0e4a f4be 6bc0 d23f 3e14 3bbf d6df a6be
00000120: 7d34 b5be 4adb 993d 741e 07bd dcce 9e3d
00000130: c899 96bc b73d 3dbf 20ea 11bc 7fae f23f
00000140: f401 abbe 20ef c63b b085 433e 1c94 35be
00000150: 926f 3bbf 1ed6 4cbe 1662 d9be 0548 13bf
00000160: 902a ef3e c1b5 1bbf 0bdf 0140 5ed9 353e
00000170: 09e9 3abf 4353 b93f 5079 fcbc 720d 4e3f
00000180: 745a 1bbe 843a 4cbf d5e0 d5be 1b29 89bd
00000190: d821 ddbd 85c1 16be 2f6e f43f dc76 06bf
000001a0: 524c 04bf 7b66 9ebe 5f7c 123e 8b40 9fbd
000001b0: 2a6a 66be ee56 f7bd 3073 c9be fad4 053e
000001c0: f79c ad3d f348 c9be 6042 67bc 28b1 15be
000001d0: 3442 ad3e cf10 aa3f d249 f7be d585 5abf
000001e0: 6da6 2e3e ba35 87bd 37eb d0bd 2cc5 b9bd
000001f0: 93f9 65bf 8e03 a03e d0aa 203c 3b89 74be

model/batch_normalization_11/FusedBatchNormV3;model/depthwise_conv2d_5/depthwise;model/depthwise_conv2d_5/BiasAdd;model/depthwise_conv2d_5/BiasAdd/ReadVariableOp/resource f4 [64, 1, 3, 3]
-0.13660406 0.7225308 0.6842829 -0.43319625 0.32376468 0.5639685 -0.44089097 -0.18436061
0.029632397 -0.2780245 -0.47716486 -0.17944737 -0.51175976 -0.13895354 0.09264765 -0.46997333
-0.1327473 0.2782222 0.43961945 0.020633053 -0.24539453 0.46348345 0.41829008 0.068946615
0.121818736 0.4868361 0.3020371 -3.631103 -2.7500985 -2.8236122 -2.3281276 -3.4796565
1.425098 -0.8522102 -0.22799625 0.24487482 -0.052141823 0.2646277 0.28674465 0.40502775
0.58723587 0.42159647 0.3753456 0.41418746 0.12538826 -0.06957848 -0.5653774 0.09144017
-0.49654686 0.2566927 0.3658762 -0.48601326 0.41783646 0.031130565 -0.09970099 -0.11801527
0.022608763 0.019070338 0.3183346 0.48119965 -0.71985996 -0.30499065 0.0527358 -0.041186105
0.1351879 -0.55158263 0.3103282 0.1571864 -0.31345177 0.20590658 -0.07949898 -0.25378805
-0.00024127975 -0.4669464 -0.83251137 -0.11259589 -0.49449688 -0.32291588 -0.1378364 -0.7151845
-0.45277825 1.1162087 1.4034363 0.73719704 0.8319589 1.2499655 0.3716616 0.15658875
0.3998089 0.41151944 0.158794 0.10654062 0.14547542 0.28889063 0.38970807 0.17936969
0.25970918 0.3736045 0.117251754 -0.09001598 -0.13013646 -0.15103519 -0.4426871 -0.2723492
-0.2792985 -0.21836808 -0.46630704 -0.4676986 -2.474739 -0.0038160852 1.1189985 -2.974372
-1.5826187 0.08602543 -0.9329024 1.2874846 -1.7699354 0.14642271 -1.0045459 -2.7020018
-0.91185606 1.1968979 -0.99860597 0.5587034 -3.627826 -1.6153288 0.26866972 0.3341494
0.21480963 0.23467255 0.41285872 0.17070794 0.030369332 0.08419815 0.019527167 -0.48757464
0.30255178 0.6678701 -0.42712128 -0.13005829 0.4998915 0.003534443 -0.527071 0.09573633
-0.29271075 -0.41573283 -0.32205853 -0.24038254 -0.37251842 -0.13579208 -0.32109466 -0.40571958
-0.09485797 0.12642583 0.39629218 0.4095636 0.12548703 0.29351383 0.27783892 -0.034374658
-0.02158629 0.09654291 0.19676311 0.13681225 0.0040337075 0.2690404 0.2997249 0.20494242
0.14678226 0.2567868 0.28979936 0.12289389 -0.049361903 -0.22003193 -0.286124 -0.40674162
-0.47724053 -0.3946627 -0.4285936 -0.31272286 1.1589059 2.3595612 1.3693298 2.0920084
3.2291844 1.7181174 1.0422647 1.8493702 1.2237141 0.33842853 0.7458808 0.33060673
0.5726036 0.7680275 0.19226019 0.25924504 0.11584838 0.027071374 -0.095912926 0.2821315
0.35887438 0.5171812 0.81889695 0.46092728 0.6198864 0.82274306 0.43532744 0.49431714
0.71215403 0.43279678 0.696083 0.86650723 0.39283848 0.13324717 0.13652295 -0.06614886
0.20138787 0.3673401 0.23452742 0.32211223 0.5967485 0.3010775 0.18975402 0.30113912
0.22124773 -0.56705403 -0.16876641 0.24906519 -0.3600767 0.36602107 0.634917 -0.08460079
0.5133957 0.5440545 0.27857116 0.11647023 -0.079208694 0.5350581 0.4643326 -0.04655494
0.13230665 0.26626053 0.090264484 -0.02684358 0.1133642 0.08926137 0.09811308 0.48815435
0.5962233 0.11442086 0.29386878 0.350195 -0.50445956 -1.0264754 -0.67955816 -0.6383236
00000000: efe1 0bbe c7f7 383f 2a2d 2f3f e6cb ddbe
00000010: 7cc4 a53e 3d60 103f 76bc e1be 07c9 3cbe
00000020: a4bf f23c 3a59 8ebe f44e f4be 0dc1 37be
00000030: b002 03bf d649 0ebe 0dbe bd3d 58a0 f0be
00000040: e9ee 07be 2473 8e3e cd15 e13e a606 a93c
00000050: b448 7bbe b44d ed3e 1e2a d63e e233 8d3d
00000060: 1a7c f93d 9542 f93e 9ba4 9a3e fe63 68c0
00000070: 9d01 30c0 10b6 34c0 0b00 15c0 b1b2 5ec0
00000080: 9c69 b63f 732a 5abf d977 69be 77c0 7a3e
00000090: aa92 55bd 487d 873e 32d0 923e cc5f cf3e
000000a0: 1755 163f 7edb d73e 4c2d c03e 6110 d43e
000000b0: c865 003e 2a7f 8ebd 93bc 10bf fc44 bb3d
000000c0: 643b febe 3a6d 833e 2054 bb3e bbd6 f8be
000000d0: a9ee d53e 8705 ff3c 0830 ccbd fdb1 f1bd
000000e0: 0336 b93c 6639 9c3c c1fc a23e cd5f f63e
000000f0: be48 38bf bc27 9cbe 7f01 583d c3b2 28bd
00000100: b26e 0a3e 8534 0dbf 56e3 9e3e 79f5 203e
00000110: c07c a0be 2dd9 523e 5cd0 a2bd 82f0 81be
00000120: 0a00 7db9 9913 efbe 771f 55bf ad98 e6bd
00000130: b22e fdbe 3b55 a5be fc24 0dbe 5516 37bf
00000140: 8dd2 e7be eddf 8e3f cda3 b33f f2b8 3c3f
00000150: 42fb 543f dffe 9f3f 6e4a be3e cd58 203e
00000160: c1b3 cc3e adb2 d23e e59a 223e f831 da3d
00000170: 82f7 143e 79e9 933e d187 c73e b0ac 373e
00000180: 9af8 843e 1749 bf3e b021 f03d 4c5a b8bd
00000190: 7e42 05be f8a8 1abe e2a7 e2be 5b71 8bbe
000001a0: 3700 8fbe e29b 5fbe ccbf eebe 3176 efbe
000001b0: 2062 1ec0 4917 7abb 583b 8f3f 1c5c 3ec0
000001c0: 4093 cabf 1a2e b03d b1d2 6ebf 4ccc a43f
000001d0: 3e8d e2bf d6ef 153e f694 80bf 99ed 2cc0
000001e0: 666f 69bf f333 993f a4a4 7fbf 3007 0f3f
000001f0: 4d2e 68c0 18c3 cebf 148f 893e a115 ab3e
00000200: 0ef7 5b3e 004e 703e 3862 d33e 10ce 2e3e
00000210: 1bc9 f83c 1470 ac3d 70f7 9f3c 62a3 f9be
00000220: 11e8 9a3e 89f9 2a3f a4af dabe 002e 05be
00000230: c7f1 ff3e 1da2 673b 20ee 06bf 6911 c43d
00000240: 2fde 95be efda d4be dbe4 a4be d726 76be
00000250: bcba bebe 140d 0bbe 8566 a4be 7aba cfbe
00000260: e544 c2bd c675 013e cfe6 ca3e 52b2 d13e
00000270: ac7f 003e 7247 963e e740 8e3e 71cc 0cbd
00000280: bbd5 b0bc 4ab8 c53d 457c 493e 8318 0c3e
00000290: 312d 843b aabf 893e 8b75 993e 6ddc 513e
000002a0: 174e 163e 8f79 833e 9560 943e cbaf fb3d
000002b0: b52f 4abd 0d50 61be d87e 92be 7040 d0be
000002c0: df58 f4be 3b11 cabe 9f70 dbbe 361d a0be
000002d0: 0757 943f 0d03 1740 3346 af3f 77e3 0540
000002e0: f5aa 4e40 45eb db3f ee68 853f 2ab8 ec3f
000002f0: aaa2 9c3f 8146 ad3e 0bf2 3e3f 4945 a93e
00000300: 2696 123f 739d 443f dbdf 443e c4bb 843e
00000310: ea41 ed3d c9c4 dd3c ff6d c4bd 8a73 903e
00000320: 62be b73e fd65 043f 3ba3 513f a9fe eb3e
00000330: e0b0 1e3f 4a9f 523f 3de3 de3e 2317 fd3e
00000340: ba4f 363f 8a97 dd3e 7f32 323f 6bd3 5d3f
00000350: 2022 c93e f271 083e accc 0b3e 0e79 87bd
00000360: 9f38 4e3e 0014 bc3e f527 703e e5eb a43e
00000370: 82c4 183f d526 9a3e e14e 423e e82e 9a3e
00000380: c48e 623e 742a 11bf 1ad1 2cbe f20a 7f3e
00000390: f95b b8be 1d67 bb3e ec89 223f 2e43 adbd
000003a0: e76d 033f 2847 0b3f e1a0 8e3e f287 ee3d
000003b0: 2b38 a2bd 91f9 083f 01bd ed3e 65b0 3ebd
000003c0: 657b 073e 4d53 883e 96dc b83d 11e7 dbbc
000003d0: 7d2b e83d aace b63d 83ef c83d 5eef f93e
000003e0: 17a2 183f 7c55 ea3d f875 963e c24c b33e
000003f0: 4324 01bf 8c63 83bf 86f7 2dbf 2d69 23bf

model/conv2d/Conv2D f4 [8, 3, 3, 3]
0.6209057 0.55579996 -0.0132960295 0.04314132 -0.23021378 0.33632478 0.47930637 1.1491472
0.77363986 -1.5228945 -2.012031 -2.079728 -1.5274957 -0.67976683 0.010103798 -0.32357028
-1.5814416 -1.4380425 1.1697695 1.6673918 1.4178659 1.429328 0.21290651 0.6750693
-0.085438676 0.4469011 0.018045647 -0.6636093 -1.1174624 -1.0717323 0.093451254 -1.1752204
-0.590747 0.54725754 0.67554057 0.31131038 -0.35980558 -0.021786518 -0.24510108 -0.49340603
0.05301065 0.5247434 -0.17453814 -0.48383588 -0.1787946 1.4760957 0.49234408 1.3967384
0.20163521 0.8095772 0.18836738 -0.36915103 0.34140638 -0.12705992 -0.9047883 -0.39831406
0.13160779 0.11755614 -0.12523396 0.26526684 -0.14041097 0.5030471 1.4366771 -1.0899835
-0.90800387 0.014039239 -0.9092368 -0.6035397 0.2510837 0.10620005 0.1325887 0.25768766
-0.8563535 -0.7765292 -0.40230155 -0.15448731 0.25409576 0.12407106 0.28073585 0.11995047
0.41783506 1.1596879 -0.50456977 1.2484751 0.6878679 -1.2793133 0.658691 0.72681093
-1.2854232 -0.07528798 0.52906317 -1.3966213 0.38123298 0.3613141 -0.9813414 -0.038549908
-0.45585895 -0.073906936 0.61360675 -0.27713418 -1.04958 -0.11257925 0.49474612 -1.7331458
0.049397632 0.38538364 0.5221432 0.36062583 -0.23558752 -0.49337992 -0.62459904 0.20105723
-0.3491425 -0.8828571 0.10701479 0.10612383 -0.4335371 0.32534814 0.17072624 -0.19188717
0.48926318 -0.36363977 -0.28215268 0.21394214 0.5356148 -0.6161778 0.12031535 0.2465398
0.17339715 -0.47192746 -0.25709713 -0.3689314 0.23173194 -0.48569688 -0.50398165 -0.0718173
-0.23550726 -0.15308094 0.19963366 0.054038227 -0.15212765 0.15039521 0.32933447 -0.007663989
0.18945785 -0.20102872 -0.021854745 0.27464673 -0.096083015 -0.23092051 0.22427385 0.15149112
-0.049847353 -0.11344578 -0.19170777 0.02343471 0.12134466 0.15159759 -0.2978965 -0.056809343
0.029336266 0.037032828 0.6445808 0.7798536 0.25104472 0.45277655 -0.05020482 0.38133946
0.2613636 0.8536024 0.7364537 -0.35934243 -0.46103546 -0.5060206 -0.5307605 -0.6010968
-0.5630899 -0.6731027 -1.184501 -1.125636 -0.16787356 -0.46670938 0.30980012 -0.042522468
0.5012726 0.31092203 0.34778458 0.6635772 -0.1386252 0.0989505 -0.2721287 -0.48032683
0.06687298 0.06355446 -0.3623519 0.06932528 -0.10954356 -0.19642642 -0.009960186 0.14995766
-0.008361295 0.11661444 -0.06738716 -0.12601344 -0.06520844 0.21740332 0.16736422 -0.1446573
0.2750776 -0.04873833 0.041164413 -0.13421516 -0.27251095 0.17853388 -0.16772486 -0.26174003
00000000: adf3 1e3f e848 0e3f 97d7 59bc f4b4 303d
00000010: 29bd 6bbe c332 ac3e a567 f53e 4117 933f
00000020: 430d 463f 35ee c2bf 1ec5 00c0 431a 05c0
00000030: fb84 c3bf 3305 2ebf 668a 253c 01ab a5be
00000040: ae6c cabf c711 b8bf 02bb 953f 186d d53f
00000050: a17c b53f 38f4 b63f 2a04 5a3e 57d1 2c3f
00000060: 79fa aebd 39d0 e43e 77d4 933c 4de2 29bf
00000070: 0209 8fbf 862e 89bf 5f63 bf3d 9f6d 96bf
00000080: 323b 17bf 1219 0c3f 3af0 2c3f 1364 9f3e
00000090: 7038 b8be a479 b2bc c7fb 7abe b79f fcbe
000000a0: b221 593d 9555 063f 20ba 32be 56b9 f7be
000000b0: ee15 37be b4f0 bc3f 8614 fc3e 53c8 b23f
000000c0: 7679 4e3e 7440 4f3f 61e3 403e 5d01 bdbe
000000d0: d1cc ae3e ff1b 02be 35a0 67bf d2ef cbbe
000000e0: 31c4 063e 46c1 f03d 553d 00be 0ed1 873e
000000f0: e5c7 0fbe b2c7 003f 09e5 b73f 9484 8bbf
00000100: f172 68bf d604 663c bec3 68bf 9481 1abf
00000110: 0b8e 803e 697f d93d 55c5 073e a3ef 833e
00000120: fc39 5bbf 9eca 46bf 78fa cdbe ec31 1ebe
00000130: d718 823e f818 fe3d 9cbc 8f3e 98a8 f53d
00000140: 7aee d53e a770 943f 7c2b 01bf 08ce 9f3f
00000150: 1c18 303f 8ac0 a3bf f99f 283f 4810 3a3f
00000160: bf88 a4bf 9630 9abd af70 073f 7dc4 b2bf
00000170: f830 c33e 29fe b83e 3139 7bbf 82e6 1dbd
00000180: 5866 e9be 855c 97bd 5515 1d3f 88e4 8dbe
00000190: a358 86bf f38f e6bd 5d4f fd3e b9d7 ddbf
000001a0: 2c55 4a3d 0151 c53e 2dab 053f f3a3 b83e
000001b0: db3d 71be 4b9c fcbe b9e5 1fbf f2e1 4d3e
000001c0: cec2 b2be ec02 62bf 922a db3d 7357 d93d
000001d0: 93f8 ddbe 0894 a63e dcd2 2e3e 127e 44be
000001e0: b480 fa3e fe2e babe 5176 90be a613 5b3e
000001f0: 0d1e 093f d4bd 1dbf e567 f63d ee74 7c3e
00000200: 068f 313e 7aa0 f1be 3ca2 83be 94e4 bcbe
00000210: 234b 6d3e 43ad f8be f104 01bf f314 93bd
00000220: d128 71be 40c1 1cbe c46c 4c3e 3057 5d3d
00000230: 5ac7 1bbe 3401 1a3e 879e a83e 3322 fbbb
00000240: 3d01 423e 79da 4dbe b908 b3bc 7f9e 8c3e
00000250: 2cc7 c4bd 6d76 6cbe 0ba8 653e 7d20 1b3e
00000260: bd2c 4cbd 4356 e8bd 0b4f 44be 26fa bf3c
00000270: 8d83 f83d 663c 1b3e e485 98be eab0 68bd
00000280: 9c52 f03c bcaf 173d 3f03 253f 7ca4 473f
00000290: ef88 803e 54d2 e73e 92a3 4dbd ed3e c33e
000002a0: 73d1 853e b085 5a3f 3b88 3c3f bbfb b7be
000002b0: d70c ecbe 918a 01bf ecdf 07bf 7be1 19bf
000002c0: a926 10bf 7550 2cbf bb9d 97bf d714 90bf
000002d0: 0ce7 2bbe 88f4 eebe 1f9e 9e3e 0a2c 2ebd
000002e0: 6753 003f 2c31 9f3e d210 b23e 32e0 293f
000002f0: c4f3 0dbe 8fa6 ca3d 7454 8bbe 66ed f5be
00000300: b3f4 883d d728 823d 3086 b9be 6afa 8d3d
00000310: 6058 e0bd 0224 49be 0c30 23bc 808e 193e
00000320: d0fd 08bc 8dd3 ee3d 4802 8abd ab09 01be
00000330: 018c 85bd fa9e 5e3e 8761 2b3e 0b21 14be
00000340: f9d6 8c3e d8a1 47bd 049c 283d b36f 09be
00000350: 8e86 8bbe 96d1 363e 11c0 2bbe ca02 86be

model/activation_11/Relu;model/batch_normalization_11/FusedBatchNormV3;model/depthwise_conv2d_5/depthwise;model/depthwise_conv2d_5/BiasAdd;model/depthwise_conv2d_5/BiasAdd/ReadVariableOp/resource f4 [64]
-0.2495905 1.1884973 -0.049307358 1.5574932 -0.70172954 -0.07619743 0.033087257 0.09160753
1.998506 -0.21968505 -0.82199204 1.1478913 1.6781707 -0.48989975 -0.53192216 -0.21752474
1.5814115 -0.88920164 -0.72098345 1.5148822 0.0107963085 -0.11668661 -0.55868995 -0.4286095
-0.4256329 0.030028548 -0.7990915 -0.5023362 3.5176804 -0.31179377 -0.8554695 1.390259
-0.5343201 -0.1145059 -0.3885437 -0.08098499 1.2924961 -0.3759477 1.7120272 -0.37201685
1.6178528 -0.38092616 -0.76080835 -1.3238739 1.6759181 1.881517 -0.6234498 -0.51860595
2.4124267 -0.09678912 0.011475511 -0.054596808 1.963986 -0.42776698 0.21282448 -0.60748076
0.07548526 -0.36113945 -0.24050903 -0.53874207 0.3070606 -0.3891501 -0.7422581 0.22048499
00000000: a794 7fbe ae20 983f 83f6 49bd f05b c73f
00000010: 8ca4 33bf 660d 9cbd 8186 073d bb9c bb3d
00000020: 0bcf ff3f 1ef5 60be 126e 52bf 1aee 923f
00000030: 4cce d63f 24d4 fabe 0d2c 08bf cebe 5ebe
00000040: b16b ca3f b8a2 63bf 5f92 38bf a9e7 c13f
00000050: 00e3 303c 64f9 eebd 4e06 0fbf b472 dbbe
00000060: 8eec d9be 6efe f53c 4391 4cbf 1b99 00bf
00000070: ad21 6140 6fa3 9fbe 0d00 5bbf 02f4 b13f
00000080: 34c9 08bf 1282 eabd 33ef c6be 75db a5bd
00000090: 8370 a53f 387c c0be b523 db3f fe78 bebe
000000a0: cd15 cf3f c108 c3be 56c4 42bf b374 a9bf
000000b0: 7c84 d63f 8dd5 f03f 689a 1fbf 5cc3 04bf
000000c0: 3365 1a40 6039 c6bd c803 3c3c e7a0 5fbd
000000d0: e563 fb3f 4604 dbbe a9ee 593e dc83 1bbf
000000e0: 0498 9a3d 45e7 b8be 0048 76be 00eb 09bf
000000f0: 0c37 9d3e af3e c7be a004 3ebf d1c6 613e
