zigzag-imc/workload_preprocessing/infer_onnx/mlperf_tiny/ds_cnn/ds_cnn.onnx (onnx, 30262 bytes, 10 tensors)

functional_1/activation_2/Relu;functional_1/batch_normalization_2/FusedBatchNormV3;functional_1/conv2d_1/BiasAdd/ReadVariableOp/resource;functional_1/conv2d_1/BiasAdd;functional_1/conv2d_4/Conv2D;functional_1/conv2d_1/Conv2D f4 [64]
000000 4c 91 10 3f 5c cb 26 bf d9 53 82 3e 80 f5 b6 3e
       0.56471705 -0.6515405 0.25454596 0.35734177
000010 10 53 55 3f d6 6e 0d 3f 68 7a e1 be 7a 44 59 3f
       0.8332987 0.5524725 -0.440387 0.8487011
000020 dc e9 34 bd f2 56 dd 3e a7 93 d3 3e 62 68 d8 3e
       -0.04416834 0.43230397 0.41323587 0.42267138
000030 42 c6 76 3f 94 75 bc 3d 07 6d 7f 3f e5 f7 d9 3e
       0.9639627 0.09202114 0.9977574 0.4257194
000040 76 b2 a5 3e b8 af 24 3d db e4 b0 3f d3 e9 88 3e
       0.32362717 0.04020664 1.3819841 0.26740894
000050 c3 5b f9 3e b1 4f 53 3f 64 c7 53 3f f5 6b f9 be
       0.4870282 0.82543474 0.8272612 -0.48715177
000060 a4 1b 00 3f 39 36 08 3f a8 12 34 3f 58 ea de be
       0.50042176 0.5320774 0.7034097 -0.43538165
000070 1f f1 f5 3d 84 c3 09 bd c6 a3 cb 3e da cd 4d bd
       0.12008881 -0.033633724 0.39773387 -0.050245143
000080 55 79 b8 3e 66 d3 23 3c a8 64 40 3e 2f 4f 2f 3f
       0.3603007 0.009999132 0.18788397 0.684802
000090 66 91 3a 3f 16 e1 bc 3e a2 ff c8 3e c2 74 48 bf
       0.7287811 0.36890477 0.39257532 -0.7830316
0000a0 68 0a 08 3f 63 c3 db be ca d6 3a 3f 80 2b 10 3e
       0.5314088 -0.42922506 0.7298399 0.14079094
0000b0 a4 51 b5 3e cf 63 f8 3e 18 de a2 3e d5 91 82 be
       0.3541385 0.48513648 0.3181007 -0.25501886
0000c0 11 2d b8 3e cd 83 a8 3e b6 ac 30 3f c5 4b 6a 3f
       0.35971883 0.32913056 0.69013536 0.91521865
0000d0 38 41 d4 3e 68 32 22 be 56 f2 44 3e fd fd bc 3d
       0.41456008 -0.15839541 0.19233069 0.09228132
0000e0 c6 db 43 3e 64 85 2f 3f 57 cf 03 3f 48 d9 86 3e
       0.19126806 0.6856291 0.5148825 0.26337647
0000f0 f2 f2 27 3e bd 21 e0 be 42 37 f3 bc da f4 9c bc
       0.1640127 -0.4377574 -0.029689435 -0.019159723

functional_1/activation/Relu;functional_1/batch_normalization/FusedBatchNormV3;functional_1/conv2d/BiasAdd/ReadVariableOp/resource;functional_1/conv2d/BiasAdd;functional_1/conv2d_4/Conv2D;functional_1/conv2d/Conv2D f4 [64]
000000 49 03 03 be f7 e0 39 be c4 cc 23 3d 31 d8 8d be
       -0.12794222 -0.18152224 0.0399902 -0.27704003
000010 10 87 a7 bc 36 0c 9d 3c 2d 1d 8d 3d b7 06 04 be
       -0.020450145 0.019170862 0.068903305 -0.12893187
000020 b5 51 c7 bd 3e ed 4c 3b 31 f1 9a 3d 31 60 08 3d
       -0.09732381 0.0031269337 0.07565535 0.03329486
000030 15 9b 67 bc 1a 90 39 be 96 29 82 bd cc d1 1d bd
       -0.0141360955 -0.18121377 -0.06355588 -0.038530156
000040 fd a7 b1 be b9 9a 32 3d 55 84 d5 bd 58 11 18 3c
       -0.34698477 0.043604586 -0.10425631 0.009281479
000050 62 f4 6d 3c 09 7d 2b 3e 11 d6 a3 3c 9e dc 30 3d
       0.014523597 0.16746916 0.019999536 0.043179147
000060 00 22 99 3d f7 13 4a be c7 cd e2 bc 86 8e 09 bd
       0.07477188 -0.19734178 -0.027686013 -0.033583187
000070 e3 56 67 be 57 4e bc 3d 6c cc 8e bc 46 f0 be bd
       -0.22591738 0.0919463 -0.01743146 -0.09323172
000080 e4 25 e4 3c 01 cf 79 be af 60 25 bd 1f b1 4d 3e
       0.027850099 -0.24395372 -0.040375408 0.20087098
000090 ad 8a 6a ba 42 d2 a9 bd 40 44 88 3e 99 c4 b7 bd
       -0.0008947056 -0.082920566 0.2661457 -0.08973045
0000a0 ab b7 ab bd c5 a1 45 3b 49 e6 04 3e b8 eb a2 3d
       -0.08384641 0.0030156237 0.12978472 0.07955116
0000b0 6a 21 94 bb 8e e1 14 3e ee 8b 4a be 17 d9 ff bd
       -0.004520585 0.14539167 -0.19779941 -0.124925785
0000c0 0d c9 7e bd 84 3c 96 3d 6c 75 b8 3c 2a 41 cd bd
       -0.062203456 0.07335761 0.022516929 -0.10022195
0000d0 51 04 aa 3d 46 08 55 be 78 3c a4 be 5a 91 72 be
       0.083016045 -0.20803937 -0.32077384 -0.2368826
0000e0 df 85 16 3c a3 a9 82 3d b7 d8 5e bd f6 c9 e4 bd
       0.009187191 0.06380012 -0.054405894 -0.111713335
0000f0 2c 2f aa 3d cf 47 9b 3d 53 02 4d bd a6 52 a7 bd
       0.083097786 0.07582056 -0.050051045 -0.08170061

functional_1/activation_7/Relu;functional_1/batch_normalization_7/FusedBatchNormV3;functional_1/depthwise_conv2d_3/depthwise;functional_1/depthwise_conv2d_3/BiasAdd;functional_1/conv2d_4/Conv2D;functional_1/depthwise_conv2d_3/BiasAdd/ReadVariableOp/resource f4 [64]
000000 40 67 07 bf 73 f9 39 bf bf 76 27 bf c5 fb 40 3f
       -0.5289192 -0.72646254 -0.6541557 0.7538417
000010 3b d9 80 3f 43 dc 0f 3f 64 ad 2f bf a4 d6 ab 3f
       1.0066293 0.5619547 -0.6862395 1.3424878
000020 bd 0d ff be cc 83 a8 3f 6f 31 5d bf 3e df 7c 3f
       -0.4981517 1.3165221 -0.86403555 0.9877814
000030 03 1b 6b 3f 42 11 b4 3f 32 85 99 bd 36 e9 ae 3f
       0.9183809 1.4067767 -0.07496108 1.366492
000040 05 4b 94 3f 3f 37 9c 3f 37 6c 6b 3f 09 84 ed 3c
       1.1585394 1.220436 0.91962 0.028993623
000050 4d 5a 5e 3f 4a ae 57 3f 52 22 53 bf 47 7d 27 3f
       0.8685654 0.8425032 -0.82474244 0.65425533
000060 44 c8 34 3f 04 63 3c 3f 7a 35 bc 3f c5 96 6d 3f
       0.7061808 0.73588586 1.470382 0.9280818
000070 84 f9 58 be 35 11 e9 3e 08 2b 33 bf 61 78 3b 3f
       -0.21188933 0.4552094 -0.69987535 0.7323056
000080 7e 68 b7 3f 3d ab 5f 3f 44 c8 39 bf ea 64 56 be
       1.4328763 0.87370664 -0.72571206 -0.20936933
000090 ff 52 3f bf 5f 00 19 bf 71 b0 89 bf e7 e2 97 bf
       -0.74736017 -0.5976619 -1.0756971 -1.186612
0000a0 f0 a1 a1 3f cc 9a e4 3c 0d fc 52 3f 72 d0 aa 3f
       1.2627544 0.027905844 0.8241585 1.3344862
0000b0 d4 9c 86 3f b4 dd 18 bf cb 59 1c bf 58 18 47 3f
       1.051661 -0.5971329 -0.61074513 0.7777152
0000c0 9a 45 33 bf 52 a9 25 bf ca f6 ff be d7 5a cb 3f
       -0.7002808 -0.6471149 -0.49992973 1.5887097
0000d0 74 01 12 bf 13 bb b6 3e 9c 29 7a bf 6b c7 10 bf
       -0.5703347 0.356896 -0.9771974 -0.5655429
0000e0 05 f0 9c bf 83 6b 91 3f f2 b8 c8 3f fe ec 94 3f
       -1.2260748 1.1360935 1.5681441 1.1634824
0000f0 4d 99 a6 3f 1e d4 d6 be a2 5f 02 bf ca a0 3d bf
       1.3015534 -0.41958708 -0.50927174 -0.7407347

functional_1/activation_5/Relu;functional_1/batch_normalization_5/FusedBatchNormV3;functional_1/depthwise_conv2d_2/depthwise;functional_1/depthwise_conv2d_2/BiasAdd;functional_1/conv2d_4/Conv2D;functional_1/depthwise_conv2d_2/BiasAdd/ReadVariableOp/resource f4 [64]
000000 05 fa 05 bf b0 08 4d bf 1c 9e 68 be 3b 81 81 be
       -0.52334625 -0.8009138 -0.22716564 -0.25293908
000010 e4 ce 01 3f b6 a0 41 bd 7e c9 72 3f 13 1f 95 3f
       0.50706315 -0.047272407 0.948387 1.1650108
000020 d3 db 5b bf 47 bd 0b bf 32 9c 99 be 18 25 81 3f
       -0.858823 -0.5458569 -0.3000198 1.0089445
000030 5e c2 69 bf db f6 1c be 76 86 79 3f fa 12 a3 3f
       -0.91312206 -0.15328543 0.97470796 1.2740166
000040 d4 25 1e 3f a9 12 a9 3f 8e a0 cf 3f 28 d1 dc 3e
       0.6177647 1.320882 1.6220872 0.43128324
000050 78 49 97 3f b1 be 11 bf c9 9d 29 bf 54 fc 04 be
       1.1819296 -0.56931597 -0.66256386 -0.1298688
000060 3c 5a 37 bf c6 ba 90 3f 0d fa 23 3f 3d 7b 53 bf
       -0.7162206 1.1306999 0.6405342 -0.8260992
000070 7e 31 08 bf cc 2c 80 bf 68 92 6b 3f 04 67 51 bf
       -0.5320052 -1.0013671 0.92020273 -0.81797814
000080 d1 68 1f bf 95 67 8b 3f 09 aa 6a bf 13 86 98 3f
       -0.6226931 1.0890986 -0.91665703 1.1915916
000090 a8 13 6f bd 02 b6 1a bf 0d f0 03 bf 62 e1 0e bf
       -0.058368355 -0.6043397 -0.51538163 -0.55812657
0000a0 0e 53 fb be df fc 89 3f ef 20 5b bf 30 20 32 bf
       -0.49086803 1.0780295 -0.8559713 -0.69580364
0000b0 02 95 4e be 4c ec ce be 98 0c 4a bf 70 6c 36 be
       -0.2017403 -0.40414655 -0.78925467 -0.17814803
0000c0 fa 79 2c 3f bb 33 f3 be 83 36 39 bf fd ae 86 bf
       0.6737362 -0.47500405 -0.72348803 -1.0522152
0000d0 55 38 57 bf ff 50 25 bf 0a 52 a4 be d8 52 14 bf
       -0.8407033 -0.64576715 -0.3209384 -0.5793891
0000e0 90 10 4c 3f d7 56 90 3f d4 58 88 be 62 fc c7 3e
       0.7971277 1.1276501 -0.2663027 0.3905974
0000f0 07 57 d9 be 83 a1 28 3f 2e b1 ae 3f 80 41 50 bf
       -0.4244921 0.6587145 1.3647821 -0.81349945

functional_1/dense/BiasAdd/ReadVariableOp/resource f4 [12]
000000 f2 a1 55 bd 09 00 31 bc e3 98 34 bd ed 94 73 bd
       -0.052156396 -0.010803231 -0.044091117 -0.0594682
000010 36 dc a5 bb 97 23 7d bd 79 39 0b be 07 a2 b0 3c
       -0.0050616516 -0.06180152 -0.13596143 0.021561636
000020 9e 88 2e bd 26 10 d0 bd 6d ca ec bc 11 b0 eb 3d
       -0.042610757 -0.1015933 -0.028905118 0.115081914

functional_1/activation_3/Relu;functional_1/batch_normalization_3/FusedBatchNormV3;functional_1/depthwise_conv2d_1/depthwise;functional_1/depthwise_conv2d_1/BiasAdd;functional_1/conv2d_4/Conv2D;functional_1/depthwise_conv2d_1/BiasAdd/ReadVariableOp/resource f4 [64]
000000 43 e4 4b bf 00 8c 79 3f f3 86 2b 3e e2 12 48 bf
       -0.79645175 0.9747925 0.16750698 -0.7815381
000010 74 b1 89 be d0 23 a7 3f b8 51 84 be d0 72 8b 3b
       -0.26893198 1.3057804 -0.25843596 0.00425563
000020 0f 78 49 bf 22 28 5a 3f 20 74 34 bf 15 76 c9 be
       -0.7869882 0.8521749 -0.7048969 -0.39347902
000030 1b 50 85 3e 01 b7 8c bf 16 05 2b bf ea 5b 22 3e
       0.26037678 -1.0993348 -0.66804636 0.15855375
000040 80 8d c7 be 46 09 a5 bf 83 dd 2e bf 9a b1 86 3f
       -0.38975143 -1.2893455 -0.6830675 1.052295
000050 4c 32 3e be 75 6c c5 3f a6 88 0c bf 04 fb df 3e
       -0.18573874 1.5423723 -0.5489601 0.43746197
000060 09 01 63 bf 69 8b 18 bf 82 43 e4 3e 4e c9 c7 be
       -0.88673455 -0.59587723 0.44582754 -0.3902077
000070 fa c5 13 bf 2e 39 41 bf e8 87 45 3f 54 4f 1f bc
       -0.57723963 -0.75477874 0.771605 -0.009723503
000080 27 9b 8f bf cf 0c f3 3d 0d 64 e8 3e 46 ba 23 bf
       -1.1219224 0.118676774 0.45388833 -0.63956106
000090 ce aa 6f 3f 44 a6 20 3c 6e b8 05 bf ff 03 cb be
       0.9362 0.009805266 -0.5223454 -0.39651486
0000a0 a8 c0 e6 be ae 71 e1 bd 7f 78 8d 3f a1 5c b0 be
       -0.4506886 -0.11008011 1.1052397 -0.3444567
0000b0 0b 77 9c 3f c7 d9 04 bf c2 42 5e be 11 55 90 be
       1.2223829 -0.518948 -0.21705154 -0.281899
0000c0 82 64 c3 be 46 f6 cf be e5 ec 92 3f fe 0e 9b be
       -0.3816262 -0.4061758 1.1478544 -0.30284876
0000d0 14 d5 94 3f fa 7b 93 3f 33 ac 4f 3f ff df 5a be
       1.1627526 1.152221 0.8112213 -0.2137451
0000e0 93 33 3c bf de 22 ae 3e 57 34 1a 3e 14 67 ad 3f
       -0.73516196 0.34010977 0.15059029 1.3547082
0000f0 63 d8 0a bf b7 a9 44 3f 82 cc 76 be f4 3e 8b 3f
       -0.5423643 0.76821464 -0.24101451 1.0878587

functional_1/activation_4/Relu;functional_1/batch_normalization_4/FusedBatchNormV3;functional_1/conv2d_2/BiasAdd/ReadVariableOp/resource;functional_1/conv2d_2/BiasAdd;functional_1/conv2d_4/Conv2D;functional_1/conv2d_2/Conv2D f4 [64]
000000 48 b4 0f 3f 06 98 9c bf c1 27 06 bf 19 4c 7d bf
       0.5613446 -1.2233894 -0.5240441 -0.9894424
000010 5d 93 12 3f 77 80 8c 3f 29 4b 85 bf bc 1b b6 3e
       0.5725611 1.0976704 -1.0413562 0.35568035
000020 5f a8 a5 3e 06 1b 8c 3e c4 d5 f9 3e 26 86 a1 3f
       0.3235502 0.27364367 0.48795903 1.2619064
000030 52 6f 2d 3f 94 da bc bd 65 48 a3 3f d6 b1 23 3f
       0.67747986 -0.09221378 1.2756468 0.6394323
000040 11 dc 54 be bc 24 f7 3e 42 9c 95 3f 69 08 f7 3d
       -0.20787074 0.48270214 1.1688311 0.12062151
000050 7c 54 b4 be 60 a4 21 3e 8b aa e3 be 49 8d 82 be
       -0.35220706 0.1578536 -0.4446605 -0.25498417
000060 a9 64 ad bf dc b8 e7 bd c2 ca 42 bf cd a3 96 3f
       -1.3546344 -0.11314556 -0.76090634 1.1768738
000070 a8 14 dc be 54 19 88 3c 54 55 c1 3d f0 88 71 be
       -0.4298451 0.01661364 0.09440103 -0.23587394
000080 bb 47 0c 3f 3e af 5b 3e dd d2 10 3e 54 57 bd 3e
       0.5479695 0.21453568 0.14142938 0.3698069
000090 f3 72 36 3f 58 db a8 be 3e 48 15 3f d6 22 0c be
       0.7126915 -0.32979846 0.5831336 -0.13685164
0000a0 54 56 52 3d c6 08 91 3e 02 53 ac 3d 19 79 05 bf
       0.05135186 0.28327006 0.0841427 -0.52137905
0000b0 01 fb dc 3d 6c cb 5a be 5a 44 3b bf 85 9d c7 3e
       0.10790063 -0.21366662 -0.7315117 0.38987365
0000c0 99 7f 14 3f 0f 25 5d 3d ea 1c 50 bd 17 be f2 3e
       0.580072 0.05399042 -0.050808825 0.47410652
0000d0 4c a2 dc be 67 4f 62 3f 6c f2 a4 3e 65 af 31 bf
       -0.43092573 0.8840241 0.32216203 -0.69408256
0000e0 37 b7 24 bf 35 16 bc be bb f0 1e bf 24 24 4e be
       -0.64342064 -0.36735693 -0.62086076 -0.20130974
0000f0 b0 2d 22 3c 60 72 2e be 42 87 fd 3e 69 34 90 be
       0.009898588 -0.17035818 0.49517256 -0.28164986

functional_1/activation_1/Relu;functional_1/batch_normalization_1/FusedBatchNormV3;functional_1/depthwise_conv2d/depthwise;functional_1/depthwise_conv2d/BiasAdd;functional_1/conv2d_4/Conv2D;functional_1/depthwise_conv2d/BiasAdd/ReadVariableOp/resource f4 [64]
000000 45 8f a1 3e a5 11 34 3f cc fb ef 3e 13 df 1e bd
       0.31554618 0.70339423 0.46871793 -0.03878696
000010 72 38 a3 3e 0c b1 48 be fe e3 5d 3e 8f b3 34 3f
       0.31879002 -0.19598788 0.21669003 0.70586485
000020 b0 73 1f bc 60 6a 46 3b 54 b2 8e 3d 67 58 2d 3d
       -0.009732172 0.0030275807 0.06967607 0.042320635
000030 48 f9 5c 3d 73 59 2a 3e 75 34 15 3e f5 46 bf 3d
       0.05394867 0.16635685 0.14570792 0.09339706
000040 a5 bd d0 bd 06 a4 00 3f 3c 17 ee 3b f6 cc 0e 3d
       -0.10192422 0.5025028 0.0072659533 0.034863435
000050 be 6c 78 3e 97 da fc 3e be ad 4a be aa 7c 9d be
       0.24260232 0.4938552 -0.1979284 -0.30759174
000060 4d 48 06 3f 2b 98 15 3e e7 44 06 3f ec 65 aa bc
       0.5245407 0.14608829 0.52448887 -0.020800553
000070 f8 0b a1 3c 98 36 85 3c 89 0d 75 3d 67 97 d8 3e
       0.019659027 0.016261384 0.05982736 0.4230301
000080 65 27 37 be b2 f0 56 be 98 60 ee 3d ad 95 03 3f
       -0.17886122 -0.20990255 0.116395175 0.5140026
000090 94 2d 3e 3e a8 22 a4 3e f4 96 5d 3f 9c 48 01 3f
       0.18572074 0.3205769 0.8655846 0.5050142
0000a0 c8 67 3e bc 8c a6 a0 bd 60 ce 44 be be 06 9b 3e
       -0.011621423 -0.07844266 -0.19219351 0.3027858
0000b0 10 f6 f1 3c be 8e 3c 3e c2 55 48 3f 44 2e 25 3f
       0.029536277 0.18413827 0.78255856 0.6452372
0000c0 a5 d5 4d be d1 92 05 3e 74 7d 7a 3e 20 63 6c 3b
       -0.2010103 0.13044287 0.24461919 0.0036069825
0000d0 19 67 a4 3e 46 c4 cd 3d 0e 5e 15 bd 70 91 10 3d
       0.32109907 0.10047202 -0.03646665 0.03529495
0000e0 3b 9f 2b 3e 26 a1 54 3e 80 5b 35 3c cb a6 36 3f
       0.1675996 0.20764598 0.011069179 0.71348256
0000f0 31 95 d5 3e 96 82 d0 3e 62 d4 b8 3e 5c 2f 31 bc
       0.41715387 0.4072463 0.36099535 -0.010814514

functional_1/activation_8/Relu;functional_1/batch_normalization_8/FusedBatchNormV3;functional_1/conv2d_4/BiasAdd/ReadVariableOp/resource;functional_1/conv2d_4/BiasAdd;functional_1/conv2d_4/Conv2D f4 [64]
000000 33 8d 3f bf 6a 97 06 3f d2 54 6b bf 99 a9 fc 3e
       -0.7482483 0.5257479 -0.919263 0.49348143
000010 55 10 23 40 59 45 d8 3f 28 8f 45 be be 53 0e 3f
       2.5478718 1.6896163 -0.19292891 0.5559653
000020 77 cd b1 3e e7 3d 30 40 a0 6e 04 c0 81 19 87 3f
       0.3472707 2.7537782 -2.069252 1.0554658
000030 78 62 95 3f 70 41 25 be 6b 99 10 3e ea 6b 97 3f
       1.1670675 -0.16138244 0.14121024 1.1829808
000040 2e e5 f9 3e 31 d9 0d be 90 4e a9 3f ae 6e d4 3e
       0.48807663 -0.13852383 1.32271 0.41490692
000050 f8 83 4b 3f d1 86 c8 3f 06 19 74 be 48 07 af 3f
       0.79498243 1.5666143 -0.2383767 1.3674097
000060 1b 9a 08 bf 52 7c b6 be 25 fc 11 bf 2a a9 59 be
       -0.53360146 -0.35641724 -0.5702537 -0.21255937
000070 30 77 9e be aa be 17 40 d8 b2 d6 3f ae a1 fa be
       -0.30950308 2.3710122 1.6773329 -0.48951477
000080 8c 2c 92 3e 16 26 0b 3e 3d 99 55 3f 82 e7 d4 3f
       0.28549612 0.13588747 0.8343695 1.663315
000090 c6 e2 bb 3f 48 96 6b 3e 97 21 cc 3f f5 e7 ac 3e
       1.4678581 0.23006546 1.5947751 0.3377072
0000a0 ec da 7c 3f 0d d7 28 3f 23 9a 5d bd 80 7d eb 3e
       0.9877155 0.6595314 -0.054102074 0.45994186
0000b0 0f f0 60 3f 8c b5 d5 3f 3b d1 87 3f 53 0d 21 bf
       0.878663 1.6696029 1.0610727 -0.62910956
0000c0 b2 27 62 3e d9 0d 67 be 73 57 4e 3f 02 6d 35 3e
       0.22085455 -0.22563876 0.80602187 0.17717364
0000d0 58 f0 29 3f ac cd 74 3f 3e 52 9e 3f c0 f1 0e 3e
       0.6638236 0.9562633 1.2368848 0.13959408
0000e0 b7 24 82 3f 51 fd b4 3f 95 8a 32 3f 0b 5a 07 3f
       1.0167454 1.4139806 0.6974271 0.5287177
0000f0 0d 02 b4 3e 87 07 00 40 bf 70 5c be f3 8e 17 40
       0.35157815 2.0004594 -0.21527384 2.3681

functional_1/activation_6/Relu;functional_1/batch_normalization_6/FusedBatchNormV3;functional_1/conv2d_3/BiasAdd/ReadVariableOp/resource;functional_1/conv2d_3/BiasAdd;functional_1/conv2d_4/Conv2D;functional_1/conv2d_3/Conv2D f4 [64]
000000 37 fa 10 3f 76 32 8d be 04 43 60 be 85 2d 0d 3f
       0.566318 -0.2757756 -0.21900564 0.5514758
000010 48 0b af 3e 26 be 4e 3e 35 02 92 3e dd de 78 3e
       0.34188294 0.20189723 0.2851731 0.24303766
000020 95 1d 7b bd 09 78 6f 3f c7 73 4c 3f fb 88 7a be
       -0.06130751 0.93542534 0.7986416 -0.24466316
000030 d6 c5 8f be 4c 76 48 3e 19 35 b4 be 76 30 b9 3e
       -0.28080624 0.19576377 -0.3519676 0.36169785
000040 bc 02 88 3d 26 61 45 3f 04 4f 42 3e e0 1d 30 bd
       0.066411465 0.7710136 0.18975455 -0.04299724
000050 af 53 b2 3e ff 01 ca 3e 2e 95 ca 3e 33 6d 7c bf
       0.3482947 0.39454648 0.3956694 -0.98604125
000060 7b ef c1 be 8e 3f 45 bf 3d c3 7d 3f cf 6d b9 3e
       -0.37878022 -0.770501 0.99126035 0.3621659
000070 8e 88 fa 3e 99 1c a2 be 73 b8 16 3e 4b b2 06 bf
       0.48932308 -0.31662443 0.147188 -0.52615803
000080 f0 4b 29 3f 9f 4b b9 bd b1 c9 26 3e cd e9 8a 3e
       0.66131496 -0.09047627 0.16287877 0.271315
000090 b0 3b a4 be f9 9d 01 bf bc 4e 0a bf 89 50 8a 3f
       -0.32076788 -0.5063167 -0.5402639 1.0805827
0000a0 96 e1 a9 be 42 11 0a 3f a2 3c 11 be aa fe d8 3e
       -0.3317992 0.53932583 -0.14183286 0.42381793
0000b0 5e 23 25 3f e8 7f 01 bf 9a 23 69 3d a6 39 7b 3e
       0.6450709 -0.50585794 0.056918718 0.2453371
0000c0 20 b5 f7 3e 18 47 42 3f cc 90 25 3e 6c 5c f7 3e
       0.48380375 0.7588973 0.16168517 0.483127
0000d0 b2 dd 38 be 72 5d 03 bf 90 02 eb 3d 69 5b db bd
       -0.1805332 -0.5131446 0.11475098 -0.107107945
0000e0 08 de c8 3e 29 82 48 3f b0 fb 96 3e 96 1e 7f bf
       0.39231896 0.7832361 0.29488897 -0.99656045
0000f0 fe 3d 55 3f e6 92 c8 3e d6 70 ab 3c 89 35 8b 3e
       0.8329772 0.39174575 0.020927828 0.27189282
