zigzag-imc/workload_preprocessing/infer_onnx/mlperf_tiny/resnet8/resnet8.onnx (onnx, 18269 bytes, 10 tensors)

model/batch_normalization_2/FusedBatchNormV3;model/conv2d_2/BiasAdd/ReadVariableOp/resource;model/conv2d_2/BiasAdd f4 [16]
00000000: a8b3 643f 3146 813e cc4a 76be caf4 a3bf
00000010: 62aa c63d ee32 643d b4b1 c3be 060d 6dbf
00000020: c15f 40bc 39b0 933f 3fde 903f db6a 7cbe
00000030: 76c4 4fbe 9329 163e b918 193f 90d3 89bf
0.89336634 0.25248864 -0.2405197 -1.2809079 0.09700467 0.055712633 -0.38221514 -0.92598
-0.0117415795 1.1538154 1.1317824 -0.24650137 -0.20289788 0.14664297 0.5980335 -1.0767689

model/batch_normalization_4/FusedBatchNormV3;model/conv2d_4/BiasAdd/ReadVariableOp/resource;model/conv2d_4/BiasAdd f4 [32]
00000000: 4210 c43f f0f6 00bf ddc2 443f 0e5f 3ebf
00000010: 1c83 243f 7bbd cebe 6ae5 6a40 9fe7 31bd
00000020: b4ac 6840 d355 f1bf b3b7 e73e 9a82 e83f
00000030: 9388 ba3f 3adb f53f 8d52 dcbf 0014 84bf
00000040: 4d92 5340 493b 3d3f 8f5a 913e 4920 1d40
00000050: 4976 1ac0 acb4 b63f 05b0 b93f faa7 233e
00000060: 97c6 36be 55a9 8d3f dcb8 98bf 1e3f 86bf
00000070: 279a 4740 bdaf 97be 181d db3f 45d0 783f
1.5317461 -0.50376797 0.7685984 -0.7436379 0.6426256 -0.40378937 3.6702523 -0.04343378
3.635541 -1.8854316 0.4525734 1.8164856 1.4572929 1.9207528 -1.7212692 -1.0318604
3.3058045 0.73918587 0.28389403 2.4550955 -2.4134696 1.4273887 1.4506842 0.15982047
-0.17849194 1.1067301 -1.1931415 -1.0488012 3.1187837 -0.29626265 1.7118254 0.97192794

model/activation/Relu;model/batch_normalization/FusedBatchNormV3;model/conv2d/BiasAdd/ReadVariableOp/resource;model/conv2d/BiasAdd;model/conv2d_2/Conv2D;model/conv2d/Conv2D f4 [16]
00000000: 83cb 1b3f e6ee a43e ae07 323f 7d51 a03e
00000010: 1e92 003f 91ae 343e 8c75 043f c377 183f
00000020: 1b5b 3b3e 6cce 9b3e 9de1 143e cf45 383f
00000030: 1a2a 3e3f 7e99 30be 939c 70bf 09fe b83f
0.6085741 0.32213515 0.6954297 0.3131217 0.5022296 0.17644717 0.5174186 0.5955774
0.18296473 0.30430925 0.1453919 0.7198152 0.7428299 -0.17246053 -0.93988913 1.4452525

model/conv2d_5/BiasAdd;model/conv2d_5/Conv2D;model/conv2d_5/BiasAdd/ReadVariableOp/resource f4 [32]
00000000: 0c18 4abc ef92 103b 84e8 273e ccf8 f8bd
00000010: 581d a6bd 2d14 15be f289 b6bc ad57 0f3e
00000020: 341c 9f3e fc51 d5bd 1f09 d2bd e532 80bd
00000030: 81fe 50be dd67 11bd 9798 803d b844 9c3d
00000040: b217 b23c bf5e afbd e97c 583e 85f8 203e
00000050: d4fc 87be 7e38 ca3d 8582 133e c669 18be
00000060: d29a 923c 673b 603d 4532 7bbe 1911 16bc
00000070: 52eb 4a3e 6d83 76be 1b91 c13d b3e5 813e
-0.012334835 0.0022060235 0.16397291 -0.12156829 -0.081110656 -0.14558478 -0.022282574 0.1399829
0.31076205 -0.10416028 -0.10255646 -0.06259707 -0.20409586 -0.035499442 0.06279104 0.076302946
0.021739814 -0.08562993 0.211414 0.15719803 -0.2656008 0.09874056 0.14405258 -0.148841
0.01789609 0.05474415 -0.24530895 -0.00915935 0.1981633 -0.24073572 0.09451505 0.2537056

model/batch_normalization_6/FusedBatchNormV3;model/conv2d_7/BiasAdd/ReadVariableOp/resource;model/conv2d_7/BiasAdd f4 [64]
00000000: 7337 3f3f a775 06bd cb66 7fbf bc9a 803e
00000010: a1f8 3440 0463 66bf ee71 5c3e 87b9 9fbf
00000020: fc45 5b40 ee52 963f afa4 8f3f 0c3a 2640
00000030: 6f68 6c3e 9573 2340 e804 0c40 2973 6cbf
00000040: fdc5 ce3e 6940 b03f 7f41 cd3f 908f 12bf
00000050: 5f0e 0e3e 7408 763f 28cf 1d40 0cc3 003d
00000060: 2907 8abf 7b1e 163f 2729 1f40 61c0 9a3f
00000070: 49da 2840 7b97 fcbe 1f48 1240 a34b 9940
00000080: c756 b140 44e7 ea3f 555b 67bf 974b 74bf
00000090: ba39 b63f 87a4 bf3f 0ae3 9cbd 0803 4b40
000000a0: 8081 93be ace3 3f40 7ed5 6740 2803 39bf
000000b0: daa0 0340 124f 44be f230 473f 8dc5 6f3e
000000c0: bbd4 b23e f10e 8cbf 336e bf3f f9c0 a53f
000000d0: 38cc 3740 ebc1 6f3f b68a 6840 6c9c 6540
000000e0: 103b 993f 1f18 2240 2f2b 1940 8703 c13f
000000f0: 40ee 8cbf 8e8d da3f 808f eebe 5b53 2f40
0.74693984 -0.032827046 -0.99766225 0.25118053 2.827675 -0.89994836 0.21527836 -1.2478493
3.4261465 1.1744058 1.1222132 2.597293 0.23086713 2.5539296 2.1877995 -0.9236322
0.40385428 1.3769656 1.6035613 -0.5725031 0.1387267 0.9610665 2.4657688 0.03143601
-1.0783435 0.5864026 2.4868867 1.2089959 2.638323 -0.4933432 2.285652 4.790483
5.541843 1.8351827 -0.90373737 -0.9542784 1.4236367 1.4972085 -0.07660492 3.17206
-0.28809738 2.998271 3.6224055 -0.7227044 2.0566926 -0.19170788 0.7780906 0.23415203
0.34927925 -1.094206 1.4955505 1.2949516 2.8718395 0.9365527 3.6334662 3.5876722
1.197115 2.5327222 2.3932607 1.5079201 -1.1010208 1.7074449 -0.46593857 2.7394626

model/activation_1/Relu;model/batch_normalization_1/FusedBatchNormV3;model/conv2d_1/BiasAdd/ReadVariableOp/resource;model/conv2d_1/BiasAdd;model/conv2d_2/Conv2D;model/conv2d_1/Conv2D f4 [16]
00000000: c12d 6e40 608b 8bbf e3a7 2a40 4229 a83f
00000010: 002f 6d40 3493 003f 1058 33bf 686f d43e
00000020: 6d2a e33f ea7c 503c f2d0 91c0 9bf2 90bf
00000030: be37 e63e cf47 0b3e b856 333e 7ae0 923f
3.7215426 -1.0901909 2.666497 1.3137591 3.7059937 0.50224614 -0.7005625 0.41491246
1.7747322 0.012725094 -4.556756 -1.1324037 0.44964403 0.13601612 0.1751355 1.1474755

model/activation_3/Relu;model/batch_normalization_3/FusedBatchNormV3;model/conv2d_3/BiasAdd/ReadVariableOp/resource;model/conv2d_3/BiasAdd;model/conv2d_5/Conv2D;model/conv2d_3/Conv2D f4 [32]
00000000: c4df ab3f e548 8b3e fd9c d73f 074e bcbf
00000010: eaa8 0d40 32a7 c63f 9a6d 6abf 991b fd3f
00000020: ea0f a43f 1026 493f 27c9 9abe eaf4 dd3f
00000030: f409 c23d 9044 30bf 641c f13f a806 e53e
00000040: 4b08 1d3f 7452 e3be 1fb6 d0bf 053d a83d
00000050: 98aa c03e 1f18 06bf d061 b73e 49f0 643f
00000060: 19e6 de3e 3266 d43d cc0d 3440 9849 5e3e
00000070: 0251 373f 4fad a83f 6c83 14be 55c7 6c3f
1.3427663 0.27204052 1.6844784 -1.4711312 2.2134347 1.5519774 -0.9157349 1.9774047
1.2817357 0.78573704 -0.30231592 1.7340367 0.09474555 -0.6885462 1.8836789 0.4473164
0.6134078 -0.44398844 -1.6305579 0.082147636 0.37630153 -0.52380556 0.35816813 0.89429146
0.43534926 0.10371055 2.813342 0.21707761 0.71607983 1.317789 -0.14503258 0.92491657

model/dense/BiasAdd/ReadVariableOp/resource f4 [10]
00000000: 3e22 b6bd eb00 20be c41c 903c afc3 903d
00000010: a8f9 3e3d fd5f 07be f6be 2e3e 2bc8 debd
00000020: 1e6b dcbb e299 373e
-0.0889325 -0.1562535 0.017591842 0.07068574 0.04662481 -0.1322021 0.17065033 -0.10878023
-0.0067266366 0.17929795

model/conv2d_8/BiasAdd;model/conv2d_8/Conv2D;model/conv2d_8/BiasAdd/ReadVariableOp/resource f4 [64]
00000000: d1cb bbbe 60f7 453d 972d 9abe fa79 6abe
00000010: 8e87 ddbd e196 16bf 515d 7dbe b72d c3bd
00000020: ec49 25be 9524 57be ab77 29bd a5ff 3c3c
00000030: cdbd a9be a87c 23be 4222 d6bb c31b 04bd
00000040: b24f 63bd a85f 8fbe 944c 72bd b842 f33d
00000050: e8a3 00be 857e 2bbe 11c3 153d 2dd6 15be
00000060: 41b9 90bd 0f87 70be 50c5 d6bc 42a3 41bf
00000070: 4cf1 69be 61bd 1dbe e015 8cbe 9045 d6bd
00000080: d99b 60be ce74 073e 3b60 2fbc 2a02 28bf
00000090: 5f5b 1fbe 190f 3dbe 13d7 46be 08da 7c3d
000000a0: fcd2 ffbd 5ff4 97be cddc d0bc 6274 bdbe
000000b0: 8dd4 c53d d185 0bbe 0ffc e8bd 6234 7ebe
000000c0: 0df4 9a3c f752 44be c8d6 8fbe 8080 90be
000000d0: 5fea f93b aae4 08bf bbb9 ebbe 4d2a e3be
000000e0: 3528 8f3c 31b7 96bd 2797 49bd 2a01 bebd
000000f0: 93f9 83be 2509 763d 987c 55be be8b 04bd
-0.36678937 0.04833162 -0.30112907 -0.22898093 -0.10816871 -0.5882397 -0.24742629 -0.09530204
-0.1614148 -0.21010049 -0.04137389 0.01153556 -0.3315262 -0.15965521 -0.0065348456 -0.03225304
-0.055495925 -0.28002667 -0.05915506 0.1187796 -0.12562525 -0.16747482 0.036562983 -0.14632483
-0.070665844 -0.23489021 -0.026217133 -0.75639737 -0.22845954 -0.15404274 -0.2736044 -0.10462487
-0.21934451 0.13228151 -0.0107040955 -0.656283 -0.15562199 -0.1846279 -0.19417982 0.06173137
-0.12491414 -0.29678628 -0.025495911 -0.37002856 0.096596815 -0.13625266 -0.11376201 -0.2482467
0.0189152 -0.19172274 -0.28093553 -0.28223038 0.007626816 -0.53473914 -0.4604014 -0.4436821
0.017475227 -0.0735916 -0.049216416 -0.09277566 -0.25776348 0.060067315 -0.2084831 -0.03235983

model/activation_5/Relu;model/batch_normalization_5/FusedBatchNormV3;model/conv2d_6/BiasAdd/ReadVariableOp/resource;model/conv2d_6/BiasAdd;model/conv2d_8/Conv2D;model/conv2d_6/Conv2D f4 [64]
00000000: c5ad 1d3f 9455 a03f c357 c43f 225b 81bf
00000010: 7574 20be 4447 b03e 7fe6 833f af8b d9bf
00000020: dd6e 9d3e 2cbf ba3e 8282 d83f bcfc 3cbe
00000030: a325 103f b346 793e be6e bb3e 9530 ab3f
00000040: ef61 8fbc 83b1 0abf 8105 533e 6a3b 683f
00000050: 20fb 6138 e9de 883f 5e97 1abf 9903 d1bf
00000060: b102 bb3f 3f6d 693f e177 d53e d5cf 723f
00000070: 330a 1dbf a794 87bf 8518 edbe 058f ebbf
00000080: 1e29 cfbf 5ee8 a7bc 74ea 333f 537c 72bf
00000090: 2f22 af3f dde2 2dc0 3bb1 8abe b61d 0340
000000a0: b85b a13e afd5 c13f 75b7 d83f 633c bcbe
000000b0: 5744 5ebe fd06 b2be 6c4a fd3f c5a8 dd3d
000000c0: cc9d d5bf 0bba 16be 9bd3 b13e a28d 083f
000000d0: 5db9 63bf 7153 c0be c03d 63bf e184 8c3f
000000e0: 6e84 a8bf a7ab 653f ca1a 46bf 13f3 363f
000000f0: 3f18 b9be f6c1 f9bf 322a 0e3f 43b7 9d3f
0.61593276 1.2526116 1.5339283 -1.0105937 -0.15669425 0.3442937 1.0304717 -1.6995753
0.30748644 0.36473978 1.6914828 -0.18455786 0.5630743 0.24343376 0.36607927 1.3374201
-0.017502753 -0.5417711 0.20607568 0.9071566 5.387806e-05 1.0693027 -0.6038722 -1.6329223
1.4610196 0.9118232 0.41693023 0.94848377 -0.6134369 -1.059224 -0.4630777 -1.8403021
-1.6184423 -0.020496543 0.7027962 -0.94720954 1.3682307 -2.7169716 -0.2708834 2.0486884
0.31515288 1.5143336 1.6930987 -0.3676482 -0.21705757 -0.34770957 1.9788337 0.10823206
-1.6688781 -0.14719407 0.34731755 0.53341115 -0.88954717 -0.3756366 -0.887661 1.0978051
-1.3165414 0.89715046 -0.77384627 0.7146465 -0.3615131 -1.9512317 0.55533135 1.2321552
